examples/cifar10_lvgl_seekfree_art/cifar10_quant.tflite (tflite, 58920 bytes, 7 tensors)

sequential/conv2d/Conv2D i1 [32, 3, 3, 3]
00000000: 2a06 12a3 e83a 33fa f600 d61c 81de 7ced
00000010: db38 21cd 02b4 d969 e0ce 30d3 81a2 f9f5
00000020: 3449 4f3b c48a 8f01 0f29 3c5e 3ec2 a68f
00000030: f703 1f4e 5d3e a4e5 818b bdcd 1119 62f7
00000040: fbc2 1c43 4e2e 2f58 250e d126 2b17 e0e2
00000050: f940 e094 f0ec d60a ebec eb0d 31bd 497f
00000060: da26 5ff1 2136 b92f 2fd1 0cf5 0d0b 332d
00000070: 7360 0354 45d8 81aa dab6 c9b4 91a8 06f3
00000080: d944 5e27 1309 e418 2d24 7174 3cff e2cf
00000090: 5547 50b1 bbb2 b1b3 d4e6 e7d1 81be 930c
000000a0: 4b4b 8181 b4dc bf2c ecd2 22e4 cdf7 331d
000000b0: 51ff da0e e4e3 e1e4 d9e7 a089 94d7 1649
000000c0: dd17 252b 5538 ba12 559d 184d 9b19 298c
000000d0: dddf 8113 258e 3828 314d 271c f22b cd8f
000000e0: d440 fc28 b581 d226 191d d184 ae2d 1131
000000f0: 323e 2c3a fdca 250a b712 13cc 3736 1b36
42 6 18 -93 -24 58 51 -6
-10 0 -42 28 -127 -34 124 -19
-37 56 33 -51 2 -76 -39 105
-32 -50 48 -45 -127 -94 -7 -11
52 73 79 59 -60 -118 -113 1
15 41 60 94 62 -62 -90 -113
-9 3 31 78 93 62 -92 -27
-127 -117 -67 -51 17 25 98 -9
-5 -62 28 67 78 46 47 88
37 14 -47 38 43 23 -32 -30
-7 64 -32 -108 -16 -20 -42 10
-21 -20 -21 13 49 -67 73 127
-38 38 95 -15 33 54 -71 47
47 -47 12 -11 13 11 51 45
115 96 3 84 69 -40 -127 -86
-38 -74 -55 -76 -111 -88 6 -13
-39 68 94 39 19 9 -28 24
45 36 113 116 60 -1 -30 -49
85 71 80 -79 -69 -78 -79 -77
-44 -26 -25 -47 -127 -66 -109 12
75 75 -127 -127 -76 -36 -65 44
-20 -46 34 -28 -51 -9 51 29
81 -1 -38 14 -28 -29 -31 -28
-39 -25 -96 -119 -108 -41 22 73
-35 23 37 43 85 56 -70 18
85 -99 24 77 -101 25 41 -116
-35 -33 -127 19 37 -114 56 40
49 77 39 28 -14 43 -51 -113
-44 64 -4 40 -75 -127 -46 38
25 29 -47 -124 -82 45 17 49
50 62 44 58 -3 -54 37 10
-73 18 19 -52 55 54 27 54

sequential/conv2d_1/Conv2D i1 [32, 3, 3, 32]
00000000: f9f1 1715 faf3 fb22 f8cd e709 0afd 0423
00000010: e70e 01e1 fb02 0012 09f6 f005 012a f2f2
00000020: d5eb 23cf f9f8 f7e5 1a06 e80a 1b23 fb13
00000030: e315 01f9 d0f3 0921 ef0c 16f8 04f0 130d
00000040: faed 01ce 0aef fc08 0eef 06f4 1918 faf6
00000050: eb12 02e2 dbf9 fd3c 1e08 0ee4 000d de1c
00000060: fbfc 07d7 f2f5 f63c 02f0 e8f1 eb21 0c20
00000070: 180a 01d9 4c02 fe15 00fb 18cb 08ff 2bf3
00000080: cd0a e6bb e615 f5b1 f325 0bfe 1312 df0e
00000090: 0aed fcd8 4009 080d d207 1ac1 ec81 0af8
000000a0: c01d 0ae3 fc1b f79f 0c10 fce0 eef8 1ce0
000000b0: d8ce 00f6 28fa f809 1618 dccb 08a5 1ded
000000c0: fdff fe24 0def fb28 dff6 f7e0 d9fb f513
000000d0: e7ff ffd9 1207 fff0 f0e6 0bf9 0d48 1711
000000e0: ea13 f3f8 0ffa fbda 0e13 1fe1 23f2 eefd
000000f0: 0fea fedf ef02 10f4 fb16 fdff e6f6 03e3
-7 -15 23 21 -6 -13 -5 34
-8 -51 -25 9 10 -3 4 35
-25 14 1 -31 -5 2 0 18
9 -10 -16 5 1 42 -14 -14
-43 -21 35 -49 -7 -8 -9 -27
26 6 -24 10 27 35 -5 19
-29 21 1 -7 -48 -13 9 33
-17 12 22 -8 4 -16 19 13
-6 -19 1 -50 10 -17 -4 8
14 -17 6 -12 25 24 -6 -10
-21 18 2 -30 -37 -7 -3 60
30 8 14 -28 0 13 -34 28
-5 -4 7 -41 -14 -11 -10 60
2 -16 -24 -15 -21 33 12 32
24 10 1 -39 76 2 -2 21
0 -5 24 -53 8 -1 43 -13
-51 10 -26 -69 -26 21 -11 -79
-13 37 11 -2 19 18 -33 14
10 -19 -4 -40 64 9 8 13
-46 7 26 -63 -20 -127 10 -8
-64 29 10 -29 -4 27 -9 -97
12 16 -4 -32 -18 -8 28 -32
-40 -50 0 -10 40 -6 -8 9
22 24 -36 -53 8 -91 29 -19
-3 -1 -2 36 13 -17 -5 40
-33 -10 -9 -32 -39 -5 -11 19
-25 -1 -1 -39 18 7 -1 -16
-16 -26 11 -7 13 72 23 17
-22 19 -13 -8 15 -6 -5 -38
14 19 31 -31 35 -14 -18 -3
15 -22 -2 -33 -17 2 16 -12
-5 22 -3 -1 -26 -10 3 -29

sequential/batch_normalization_2/FusedBatchNormV3;sequential/depthwise_conv2d/depthwise;sequential/depthwise_conv2d/BiasAdd;sequential/conv2d/Conv2D;sequential/depthwise_conv2d/BiasAdd/ReadVariableOp/resource1 i1 [1, 3, 3, 32]
00000000: 51c8 effd ece8 9d81 ae1c 1d37 7f26 79df
00000010: 7c4f c49d 5005 8f5d 1c09 f5b6 87b6 0f81
00000020: 5cb6 d0fd 9b37 82e3 8158 fe2a 7837 6dd1
00000030: 7f2c 8181 703b 817f 7fd5 febe 8951 2383
00000040: 3dfa f7fc adfe ae55 d624 1efe 4ef7 1e09
00000050: 3bdf cbb8 2c0f bf20 66fe 00ad ed19 bfee
00000060: 7f81 c201 402f a523 d564 4168 2570 7fb1
00000070: 417f e6d0 5f2f f159 c6b6 7f1d 816a 7f8f
00000080: 5683 81f1 bd7f 813f 877f 7f7f 317f 4d81
00000090: 6d58 cecd 7f7f d67a 5a81 e664 9d7f 79a1
000000a0: 4bb9 c200 c04d 9815 bd52 1648 fb1e 1dd2
000000b0: 3824 e5e5 5c37 1620 63a4 ff6e f355 01e7
000000c0: efe2 eff0 7f09 f83e 32da 0d39 cd1b 03e0
000000d0: eb4d 1d20 ffea 54d5 a6de e8e7 e452 4ae1
000000e0: 27f4 e17f e745 ffdc ec29 ca6b d335 08d7
000000f0: 074c fbfd 1120 492a fbe1 f472 0c7b 6119
81 -56 -17 -3 -20 -24 -99 -127
-82 28 29 55 127 38 121 -33
124 79 -60 -99 80 5 -113 93
28 9 -11 -74 -121 -74 15 -127
92 -74 -48 -3 -101 55 -126 -29
-127 88 -2 42 120 55 109 -47
127 44 -127 -127 112 59 -127 127
127 -43 -2 -66 -119 81 35 -125
61 -6 -9 -4 -83 -2 -82 85
-42 36 30 -2 78 -9 30 9
59 -33 -53 -72 44 15 -65 32
102 -2 0 -83 -19 25 -65 -18
127 -127 -62 1 64 47 -91 35
-43 100 65 104 37 112 127 -79
65 127 -26 -48 95 47 -15 89
-58 -74 127 29 -127 106 127 -113
86 -125 -127 -15 -67 127 -127 63
-121 127 127 127 49 127 77 -127
109 88 -50 -51 127 127 -42 122
90 -127 -26 100 -99 127 121 -95
75 -71 -62 0 -64 77 -104 21
-67 82 22 72 -5 30 29 -46
56 36 -27 -27 92 55 22 32
99 -92 -1 110 -13 85 1 -25
-17 -30 -17 -16 127 9 -8 62
50 -38 13 57 -51 27 3 -32
-21 77 29 32 -1 -22 84 -43
-90 -34 -24 -25 -28 82 74 -31
39 -12 -31 127 -25 69 -1 -36
-20 41 -54 107 -45 53 8 -41
7 76 -5 -3 17 32 73 42
-5 -31 -12 114 12 123 97 25

sequential/conv2d_2/Conv2D i1 [64, 1, 1, 32]
00000000: 3f13 41df 0b19 e001 f804 34cd d5c8 36d5
00000010: 0d03 3063 e9e3 17d7 00ef f9fa 4262 c57f
00000020: f9dd efcd ea13 ec03 e109 1723 f8cf d2f6
00000030: 231c 0e04 d3f0 ba08 0e1e f6e4 7f2d d545
00000040: 082c 690b c699 22fe 07ef e925 eafc 81d1
00000050: 0a3b c945 39f4 20ed 0dd6 1812 dfe8 0a3e
00000060: 0d2a 1390 001a 0e00 7f3d 07a8 dffa 4b33
00000070: aad8 a207 0015 ec11 0805 0302 8be6 f6ae
00000080: fe06 0cf0 0513 f402 0018 06e6 7f0a fb18
00000090: 030c 01fe 03fb fefd 0900 ebe6 072f f1ef
000000a0: f2dc ea16 2121 e401 1af4 151d 00cd 3e5b
000000b0: f5f3 fbd1 81ea cb0f 1059 b9a9 e01e 1bb4
000000c0: 0200 04f5 0e0f 02fd 0205 060a 0bed f210
000000d0: 1314 01f4 08af 0602 0b7f de08 120b edf2
000000e0: ebe5 7fe2 ff14 f4fd eb0f 2f1b edf4 15e7
000000f0: 0098 17fe 0dff f9f3 06ec fefe fae0 ef11
63 19 65 -33 11 25 -32 1
-8 4 52 -51 -43 -56 54 -43
13 3 48 99 -23 -29 23 -41
0 -17 -7 -6 66 98 -59 127
-7 -35 -17 -51 -22 19 -20 3
-31 9 23 35 -8 -49 -46 -10
35 28 14 4 -45 -16 -70 8
14 30 -10 -28 127 45 -43 69
8 44 105 11 -58 -103 34 -2
7 -17 -23 37 -22 -4 -127 -47
10 59 -55 69 57 -12 32 -19
13 -42 24 18 -33 -24 10 62
13 42 19 -112 0 26 14 0
127 61 7 -88 -33 -6 75 51
-86 -40 -94 7 0 21 -20 17
8 5 3 2 -117 -26 -10 -82
-2 6 12 -16 5 19 -12 2
0 24 6 -26 127 10 -5 24
3 12 1 -2 3 -5 -2 -3
9 0 -21 -26 7 47 -15 -17
-14 -36 -22 22 33 33 -28 1
26 -12 21 29 0 -51 62 91
-11 -13 -5 -47 -127 -22 -53 15
16 89 -71 -87 -32 30 27 -76
2 0 4 -11 14 15 2 -3
2 5 6 10 11 -19 -14 16
19 20 1 -12 8 -81 6 2
11 127 -34 8 18 11 -19 -14
-21 -27 127 -30 -1 20 -12 -3
-21 15 47 27 -19 -12 21 -25
0 -104 23 -2 13 -1 -7 -13
6 -20 -2 -2 -6 -32 -17 17

sequential/batch_normalization_4/FusedBatchNormV3;sequential/depthwise_conv2d_1/depthwise;sequential/depthwise_conv2d_1/BiasAdd;sequential/conv2d_2/Conv2D;sequential/depthwise_conv2d_1/BiasAdd/ReadVariableOp/resource1 i1 [1, 3, 3, 64]
00000000: 19c0 138f 0881 077f a9db 47de 7f9c 18ce
00000010: 11d0 685a adbb 5900 53a4 de41 987f 0440
00000020: e103 7f6f 539f 7052 d16a 4ead 21f5 3681
00000030: 7f7e 0ee4 e81a 5105 6062 dae1 1c6b 5e0f
00000040: 0281 1605 e9b3 167f ca38 342d 5981 fbe4
00000050: 20d1 4f7f 7694 55e6 4cb3 de56 816e 4e39
00000060: d41c 5b7f 55b2 137f ea62 4081 263e 2687
00000070: 3f51 3cb6 c7f6 3e11 e27f d217 2e7f 7f44
00000080: fb98 e17f f7f6 1b5f 266e e256 5acb 13f4
00000090: 61e7 5f42 7d9d 40d6 57d8 e44a bf6b e21f
000000a0: cff3 2462 2aee 2020 0215 08b9 f17f d5ce
000000b0: c407 1e9d c60f 2efd 8b7a edfb 255d 5b3f
000000c0: b8d7 4fb3 b18a 3149 81d3 7f98 02a5 be81
000000d0: 45c2 dd3e 9e8e 6ae3 b916 a368 b62f 126e
000000e0: c156 6026 7f8e e95d 817f 5abe 5af5 7fcd
000000f0: 717f 39cc 63d0 0e7f 767e 8920 c059 381b
25 -64 19 -113 8 -127 7 127
-87 -37 71 -34 127 -100 24 -50
17 -48 104 90 -83 -69 89 0
83 -92 -34 65 -104 127 4 64
-31 3 127 111 83 -97 112 82
-47 106 78 -83 33 -11 54 -127
127 126 14 -28 -24 26 81 5
96 98 -38 -31 28 107 94 15
2 -127 22 5 -23 -77 22 127
-54 56 52 45 89 -127 -5 -28
32 -47 79 127 118 -108 85 -26
76 -77 -34 86 -127 110 78 57
-44 28 91 127 85 -78 19 127
-22 98 64 -127 38 62 38 -121
63 81 60 -74 -57 -10 62 17
-30 127 -46 23 46 127 127 68
-5 -104 -31 127 -9 -10 27 95
38 110 -30 86 90 -53 19 -12
97 -25 95 66 125 -99 64 -42
87 -40 -28 74 -65 107 -30 31
-49 -13 36 98 42 -18 32 32
2 21 8 -71 -15 127 -43 -50
-60 7 30 -99 -58 15 46 -3
-117 122 -19 -5 37 93 91 63
-72 -41 79 -77 -79 -118 49 73
-127 -45 127 -104 2 -91 -66 -127
69 -62 -35 62 -98 -114 106 -29
-71 22 -93 104 -74 47 18 110
-63 86 96 38 127 -114 -23 93
-127 127 90 -66 90 -11 127 -51
113 127 57 -52 99 -48 14 127
118 126 -119 32 -64 89 56 27

sequential/conv2d_3/Conv2D i1 [128, 1, 1, 64]
00000000: 2b2f 78df cd6a 0312 21b9 0f2a d72c 9cf0
00000010: cac4 040e 26fa 1213 0011 2081 15fb edc9
00000020: 04f6 dcd1 020b 1206 ce15 e050 00f4 f00d
00000030: f4f5 b40d 1f34 09df e0fc f9f9 ecff a90f
00000040: daa8 6a18 c83a fca5 c839 054f e521 3a1c
00000050: 191d e10a 0f27 98fb eb13 10f3 050d de0e
00000060: 22b5 4581 14af e8db c705 caed 21ce bc09
00000070: ee37 eb00 f9ee 04fb 43bc e108 fd38 1318
00000080: 0b0c 1929 0217 2681 f0e2 0622 cafa 2126
00000090: 2efe 10f0 b926 0f3c ea39 03f8 fcf3 2b07
000000a0: 7d1f 01e4 faf4 0308 1dbf d800 2823 020d
000000b0: 18d9 f7e8 da03 28eb 17a6 06cc d52d 3507
000000c0: 27e8 f910 e6eb d6f1 14fb f719 c7c4 fadf
000000d0: ad57 0302 f109 f501 4002 1115 1219 ec24
000000e0: fd08 f813 f602 eb47 0ef2 08ec b801 ff49
000000f0: cbdf 21ee 7f0c 26d2 2ff3 c5f2 dfa5 1603
43 47 120 -33 -51 106 3 18
33 -71 15 42 -41 44 -100 -16
-54 -60 4 14 38 -6 18 19
0 17 32 -127 21 -5 -19 -55
4 -10 -36 -47 2 11 18 6
-50 21 -32 80 0 -12 -16 13
-12 -11 -76 13 31 52 9 -33
-32 -4 -7 -7 -20 -1 -87 15
-38 -88 106 24 -56 58 -4 -91
-56 57 5 79 -27 33 58 28
25 29 -31 10 15 39 -104 -5
-21 19 16 -13 5 13 -34 14
34 -75 69 -127 20 -81 -24 -37
-57 5 -54 -19 33 -50 -68 9
-18 55 -21 0 -7 -18 4 -5
67 -68 -31 8 -3 56 19 24
11 12 25 41 2 23 38 -127
-16 -30 6 34 -54 -6 33 38
46 -2 16 -16 -71 38 15 60
-22 57 3 -8 -4 -13 43 7
125 31 1 -28 -6 -12 3 8
29 -65 -40 0 40 35 2 13
24 -39 -9 -24 -38 3 40 -21
23 -90 6 -52 -43 45 53 7
39 -24 -7 16 -26 -21 -42 -15
20 -5 -9 25 -57 -60 -6 -33
-83 87 3 2 -15 9 -11 1
64 2 17 21 18 25 -20 36
-3 8 -8 19 -10 2 -21 71
14 -14 8 -20 -72 1 -1 73
-53 -33 33 -18 127 12 38 -46
47 -13 -59 -14 -33 -91 22 3

sequential/batch_normalization_6/batchnorm/mul_1 i1 [10, 2048] scale=0.0009869814 zero_point=0
00000000: 01ff 01fb 03fe e618 f4ee c4f9 ea06 02f8
00000010: f508 d301 d8d8 e810 feef fa0a ee04 f6da
00000020: f9f4 12eb f4f3 f1e8 ec1f ed0b f7ee e30a
00000030: f9fd 0bf5 f5f6 bef0 150b edf2 edf8 ffeb
00000040: 22e5 ea02 d7eb ed1d 100c 0e00 fd16 f104
00000050: 0113 fbf1 f803 0002 e8f0 df15 edf9 ebe6
00000060: 0ecb f7d3 0313 f8fe e107 e9e2 f2ef 0bff
00000070: ccf4 00fd e0eb f503 ee0d de21 cefd 1e23
00000080: e6f3 f6e4 d4f7 cc09 f2fc e30b e7f1 f5fa
00000090: f30f fef6 ecf8 eb11 dfde f3f7 f0ed f9fa
000000a0: efec ffe1 f2f9 e8e5 fe03 ecfb fbf2 edf9
000000b0: fb08 d1f8 faf2 efee 2304 ebe1 e90f f6f0
000000c0: f802 e7fa eee3 f703 05ea ef0c fb0a eef4
000000d0: fb24 e1fd ef08 fcf4 ede8 db08 06ea db1a
000000e0: 10ee 0be2 1108 f906 e7f9 f7e9 f7eb fafc
000000f0: eefb f5f3 dde8 f101 ec09 0cff bdee 080b
0.0009869814 -0.0009869814 0.0009869814 -0.004934907 0.0029609443 -0.0019739629 -0.025661517 0.023687555
-0.011843777 -0.017765665 -0.059218887 -0.0069088703 -0.021713592 0.0059218886 0.0019739629 -0.0078958515
-0.010856796 0.0078958515 -0.044414166 0.0009869814 -0.039479256 -0.039479256 -0.023687555 0.015791703
-0.0019739629 -0.016778685 -0.0059218886 0.009869814 -0.017765665 0.0039479258 -0.009869814 -0.037505295
-0.0069088703 -0.011843777 0.017765665 -0.02072661 -0.011843777 -0.0128307585 -0.014804722 -0.023687555
-0.019739628 0.030596424 -0.018752648 0.010856796 -0.008882833 -0.017765665 -0.028622461 0.009869814
-0.0069088703 -0.0029609443 0.010856796 -0.010856796 -0.010856796 -0.009869814 -0.06514078 -0.015791703
0.02072661 0.010856796 -0.018752648 -0.013817741 -0.018752648 -0.0078958515 -0.0009869814 -0.02072661
0.03355737 -0.0266485 -0.021713592 0.0019739629 -0.040466238 -0.02072661 -0.018752648 0.028622461
0.015791703 0.011843777 0.013817741 0.0 -0.0029609443 0.021713592 -0.014804722 0.0039479258
0.0009869814 0.018752648 -0.004934907 -0.014804722 -0.0078958515 0.0029609443 0.0 0.0019739629
-0.023687555 -0.015791703 -0.03257039 0.02072661 -0.018752648 -0.0069088703 -0.02072661 -0.025661517
0.013817741 -0.052310016 -0.008882833 -0.044414166 0.0029609443 0.018752648 -0.0078958515 -0.0019739629
-0.030596424 0.0069088703 -0.022700572 -0.029609444 -0.013817741 -0.016778685 0.010856796 -0.0009869814
-0.051323034 -0.011843777 0.0 -0.0029609443 -0.031583406 -0.02072661 -0.010856796 0.0029609443
-0.017765665 0.0128307585 -0.03355737 0.03257039 -0.049349073 -0.0029609443 0.029609444 0.03454435
-0.025661517 -0.0128307585 -0.009869814 -0.027635481 -0.043427184 -0.008882833 -0.051323034 0.008882833
-0.013817741 -0.0039479258 -0.028622461 0.010856796 -0.024674537 -0.014804722 -0.010856796 -0.0059218886
-0.0128307585 0.014804722 -0.0019739629 -0.009869814 -0.019739628 -0.0078958515 -0.02072661 0.016778685
-0.03257039 -0.03355737 -0.0128307585 -0.008882833 -0.015791703 -0.018752648 -0.0069088703 -0.0059218886
-0.016778685 -0.019739628 -0.0009869814 -0.030596424 -0.013817741 -0.0069088703 -0.023687555 -0.0266485
-0.0019739629 0.0029609443 -0.019739628 -0.004934907 -0.004934907 -0.013817741 -0.018752648 -0.0069088703
-0.004934907 0.0078958515 -0.046388127 -0.0078958515 -0.0059218886 -0.013817741 -0.016778685 -0.017765665
0.03454435 0.0039479258 -0.02072661 -0.030596424 -0.022700572 0.014804722 -0.009869814 -0.015791703
-0.0078958515 0.0019739629 -0.024674537 -0.0059218886 -0.017765665 -0.028622461 -0.008882833 0.0029609443
0.004934907 -0.021713592 -0.016778685 0.011843777 -0.004934907 0.009869814 -0.017765665 -0.011843777
-0.004934907 0.03553133 -0.030596424 -0.0029609443 -0.016778685 0.0078958515 -0.0039479258 -0.011843777
-0.018752648 -0.023687555 -0.036518313 0.0078958515 0.0059218886 -0.021713592 -0.036518313 0.025661517
0.015791703 -0.017765665 0.010856796 -0.029609444 0.016778685 0.0078958515 -0.0069088703 0.0059218886
-0.024674537 -0.0069088703 -0.008882833 -0.022700572 -0.008882833 -0.02072661 -0.0059218886 -0.0039479258
-0.017765665 -0.004934907 -0.010856796 -0.0128307585 -0.03454435 -0.023687555 -0.014804722 0.0009869814
-0.019739628 0.008882833 0.011843777 -0.0009869814 -0.066127755 -0.017765665 0.0078958515 0.010856796
