examples/ssd_person_detect/person_detect.tflite (tflite, 181216 bytes, 43 tensors)

model_2/conv2d_1/Conv2D/ReadVariableOp i1 [8, 3, 3, 3]
0	0xb3	-77
1	0xcd	-51
2	0x3e	62
3	0x20	32
4	0x0e	14
5	0x7f	127
6	0x50	80
7	0x18	24
8	0x30	48
9	0x12	18
10	0xf2	-14
11	0x21	33
12	0xd4	-44
13	0xf7	-9
14	0x7c	124
15	0x0b	11
16	0xcd	-51
17	0x10	16
18	0x03	3
19	0xd6	-42
20	0x7d	125
21	0x09	9
22	0xc8	-56
23	0x1e	30
24	0xeb	-21
25	0xb4	-76
26	0x1d	29
27	0xdb	-37
28	0x6d	109
29	0x14	20
30	0x2c	44
31	0x28	40
32	0x21	33
33	0x37	55
34	0x27	39
35	0xb4	-76
36	0xd6	-42
37	0x70	112
38	0x47	71
39	0x1c	28
40	0x7f	127
41	0x1b	27
42	0x10	16
43	0x46	70
44	0x1d	29
45	0xea	-22
46	0xf6	-10
47	0xdf	-33
48	0x2c	44
49	0x26	38
50	0xf6	-10
51	0x36	54
52	0x0a	10
53	0xf3	-13
54	0x35	53
55	0xd7	-41
56	0xe6	-26
57	0x58	88
58	0xd7	-41
59	0xfb	-5
60	0x7f	127
61	0xc6	-58
62	0xd6	-42
63	0x5a	90
64	0xbf	-65
65	0xdd	-35
66	0x01	1
67	0xd3	-45
68	0xb7	-73
69	0x7a	122
70	0xdf	-33
71	0xc5	-59
72	0xe3	-29
73	0xe4	-28
74	0xf0	-16
75	0x02	2
76	0xda	-38
77	0xc4	-60
78	0x28	40
79	0xc5	-59
80	0xdd	-35
81	0x05	5
82	0xf2	-14
83	0x13	19
84	0xf6	-10
85	0xeb	-21
86	0x81	-127
87	0x03	3
88	0x0f	15
89	0xbc	-68
90	0xe2	-30
91	0xca	-54
92	0xb7	-73
93	0xa0	-96
94	0xdd	-35
95	0x9d	-99
96	0x99	-103
97	0xc4	-60
98	0x89	-119
99	0x99	-103
100	0xf8	-8
101	0x44	68
102	0xde	-34
103	0x0a	10
104	0x3d	61
105	0x8a	-118
106	0xe2	-30
107	0x08	8
108	0xdc	-36
109	0x3a	58
110	0xaf	-81
111	0x9e	-98
112	0x13	19
113	0xb8	-72
114	0xb0	-80
115	0x03	3
116	0xa3	-93
117	0xf0	-16
118	0x2b	43
119	0x12	18
120	0xe3	-29
121	0xfd	-3
122	0xff	-1
123	0xee	-18
124	0xee	-18
125	0x15	21
126	0x30	48
127	0x7f	127
128	0x4f	79
129	0x07	7
130	0x3b	59
131	0x10	16
132	0x04	4
133	0xef	-17
134	0xd1	-47
135	0xd9	-39
136	0x22	34
137	0xc6	-58
138	0x05	5
139	0xee	-18
140	0xd1	-47
141	0x1c	28
142	0xff	-1
143	0xf7	-9
144	0x12	18
145	0x2d	45
146	0xca	-54
147	0x08	8
148	0x30	48
149	0x01	1
150	0xe0	-32
151	0xfa	-6
152	0x2c	44
153	0xcd	-51
154	0x04	4
155	0xba	-70
156	0xcb	-53
157	0xe4	-28
158	0xec	-20
159	0xa8	-88
160	0x81	-127
161	0x9d	-99
162	0xe6	-26
163	0x3e	62
164	0xf3	-13
165	0xfe	-2
166	0xec	-20
167	0x1e	30
168	0xc2	-62
169	0xd2	-46
170	0x24	36
171	0x57	87
172	0x55	85
173	0xe7	-25
174	0x3c	60
175	0x5a	90
176	0x4b	75
177	0x20	32
178	0x42	66
179	0x4f	79
180	0x3a	58
181	0x0f	15
182	0x1a	26
183	0x6c	108
184	0x5b	91
185	0x7f	127
186	0x2c	44
187	0x32	50
188	0xcf	-49
189	0x1d	29
190	0xde	-34
191	0x2b	43
192	0x3e	62
193	0xbb	-69
194	0x3d	61
195	0x27	39
196	0xc5	-59
197	0x4e	78
198	0xc1	-63
199	0xa1	-95
200	0xff	-1
201	0x10	16
202	0xcf	-49
203	0x33	51
204	0x18	24
205	0x96	-106
206	0x7f	127
207	0xe6	-26
208	0xad	-83
209	0x12	18
210	0xe3	-29
211	0xb9	-71
212	0x0f	15
213	0x19	25
214	0xac	-84
215	0x3c	60

model_2/depthwise_conv2d_1/depthwise/ReadVariableOp i1 [1, 3, 3, 8]
0	0xf2	-14
1	0x00	0
2	0x26	38
3	0x7f	127
4	0x3b	59
5	0x32	50
6	0xd8	-40
7	0x7f	127
8	0xf3	-13
9	0x10	16
10	0xd7	-41
11	0x66	102
12	0x7f	127
13	0xd4	-44
14	0xd7	-41
15	0xb7	-73
16	0x57	87
17	0xec	-20
18	0xb4	-76
19	0x20	32
20	0x71	113
21	0x7f	127
22	0x53	83
23	0x02	2
24	0x3a	58
25	0x58	88
26	0x7f	127
27	0x0f	15
28	0xa5	-91
29	0x4c	76
30	0x81	-127
31	0x27	39
32	0x66	102
33	0xe0	-32
34	0x4a	74
35	0xbe	-66
36	0xc6	-58
37	0xce	-50
38	0x2c	44
39	0x2d	45
40	0x81	-127
41	0xa6	-90
42	0xe8	-24
43	0xb0	-80
44	0xdb	-37
45	0x02	2
46	0x4b	75
47	0xb4	-76
48	0x6f	111
49	0x7f	127
50	0x6d	109
51	0xd9	-39
52	0xb4	-76
53	0x8d	-115
54	0xc1	-63
55	0x45	69
56	0xf7	-9
57	0x2b	43
58	0x10	16
59	0xd7	-41
60	0x59	89
61	0x9a	-102
62	0xf4	-12
63	0x36	54
64	0xb4	-76
65	0x97	-105
66	0xab	-85
67	0xf3	-13
68	0x89	-119
69	0xb4	-76
70	0x4d	77
71	0xa6	-90

model_2/conv2d_2/Conv2D/ReadVariableOp i1 [16, 1, 1, 8]
0	0xd7	-41
1	0x29	41
2	0x3e	62
3	0x44	68
4	0xe8	-24
5	0x94	-108
6	0xce	-50
7	0x81	-127
8	0x81	-127
9	0x3f	63
10	0xde	-34
11	0x59	89
12	0x97	-105
13	0x3b	59
14	0x7f	127
15	0x58	88
16	0xff	-1
17	0xad	-83
18	0x7f	127
19	0xf1	-15
20	0xc8	-56
21	0xf5	-11
22	0x3c	60
23	0x33	51
24	0x0c	12
25	0xbe	-66
26	0xf1	-15
27	0x24	36
28	0x7f	127
29	0x26	38
30	0xc0	-64
31	0xe7	-25
32	0xbc	-68
33	0xdb	-37
34	0x96	-106
35	0x0d	13
36	0x7f	127
37	0x82	-126
38	0x3d	61
39	0xb4	-76
40	0xb2	-78
41	0x20	32
42	0xab	-85
43	0x81	-127
44	0xd4	-44
45	0x32	50
46	0x51	81
47	0x9a	-102
48	0x1a	26
49	0x9d	-99
50	0x7f	127
51	0x03	3
52	0xd6	-42
53	0xca	-54
54	0x12	18
55	0x2f	47
56	0x29	41
57	0xd5	-43
58	0x1b	27
59	0x25	37
60	0xe1	-31
61	0x7f	127
62	0x2b	43
63	0x34	52
64	0x81	-127
65	0x8c	-116
66	0xe4	-28
67	0x8f	-113
68	0xdd	-35
69	0xd7	-41
70	0xd3	-45
71	0xa3	-93
72	0xe0	-32
73	0xb0	-80
74	0x81	-127
75	0xea	-22
76	0x0e	14
77	0xa6	-90
78	0x8c	-116
79	0xe9	-23
80	0x0e	14
81	0x5d	93
82	0x11	17
83	0x5a	90
84	0xfb	-5
85	0x6c	108
86	0x81	-127
87	0x0a	10
88	0x17	23
89	0x13	19
90	0xaf	-81
91	0x60	96
92	0x7f	127
93	0xd7	-41
94	0xe6	-26
95	0xb1	-79
96	0x51	81
97	0x34	52
98	0xcc	-52
99	0x7f	127
100	0xeb	-21
101	0x4c	76
102	0x05	5
103	0xf1	-15
104	0x27	39
105	0x0b	11
106	0x20	32
107	0x4f	79
108	0x31	49
109	0x14	20
110	0x62	98
111	0x7f	127
112	0x4c	76
113	0x3c	60
114	0xc3	-61
115	0x9f	-97
116	0xd7	-41
117	0x8a	-118
118	0x81	-127
119	0xea	-22
120	0x3f	63
121	0x7f	127
122	0x35	53
123	0x36	54
124	0xda	-38
125	0x5f	95
126	0x53	83
127	0x6b	107

model_2/depthwise_conv2d_2/depthwise/ReadVariableOp i1 [1, 3, 3, 16]
0	0x9e	-98
1	0xcb	-53
2	0x86	-122
3	0xf8	-8
4	0xc1	-63
5	0x00	0
6	0x83	-125
7	0xf0	-16
8	0xa4	-92
9	0xb1	-79
10	0xf4	-12
11	0xd5	-43
12	0x81	-127
13	0x39	57
14	0x81	-127
15	0x81	-127
16	0x2d	45
17	0xdc	-36
18	0x81	-127
19	0xe0	-32
20	0x81	-127
21	0xd0	-48
22	0xbf	-65
23	0xf2	-14
24	0xe7	-25
25	0x0a	10
26	0xfe	-2
27	0xf3	-13
28	0x03	3
29	0x01	1
30	0xbf	-65
31	0xea	-22
32	0x6c	108
33	0x44	68
34	0xc2	-62
35	0x98	-104
36	0xc7	-57
37	0x24	36
38	0x66	102
39	0xd2	-46
40	0x4b	75
41	0x3e	62
42	0x8f	-113
43	0xc1	-63
44	0x52	82
45	0xfb	-5
46	0x32	50
47	0x52	82
48	0xa2	-94
49	0xa0	-96
50	0x0b	11
51	0x7f	127
52	0xc8	-56
53	0xf0	-16
54	0xe4	-28
55	0xda	-38
56	0x94	-108
57	0xb1	-79
58	0x08	8
59	0xbe	-66
60	0xe1	-31
61	0x22	34
62	0xb6	-74
63	0xa0	-96
64	0xf8	-8
65	0xf3	-13
66	0x00	0
67	0x4e	78
68	0xb8	-72
69	0x2b	43
70	0x60	96
71	0xf8	-8
72	0x27	39
73	0x00	0
74	0x46	70
75	0xb1	-79
76	0xc3	-61
77	0x37	55
78	0xfe	-2
79	0xf2	-14
80	0x7f	127
81	0x3e	62
82	0xf5	-11
83	0xcb	-53
84	0xb9	-71
85	0x7f	127
86	0x7f	127
87	0xdb	-37
88	0x7f	127
89	0x7f	127
90	0xfb	-5
91	0x81	-127
92	0x6e	110
93	0x02	2
94	0x41	65
95	0x38	56
96	0xa4	-92
97	0x81	-127
98	0x47	71
99	0x71	113
100	0xf9	-7
101	0x27	39
102	0xdd	-35
103	0x7f	127
104	0xc2	-62
105	0xe1	-31
106	0x10	16
107	0xff	-1
108	0x28	40
109	0xe6	-26
110	0x18	24
111	0xe3	-29
112	0xd4	-44
113	0xc9	-55
114	0x72	114
115	0x37	55
116	0xf9	-7
117	0x4f	79
118	0x2f	47
119	0x43	67
120	0x13	19
121	0xdf	-33
122	0x7f	127
123	0xc6	-58
124	0xce	-50
125	0x24	36
126	0x64	100
127	0x2d	45
128	0x2a	42
129	0x1f	31
130	0x27	39
131	0x20	32
132	0x03	3
133	0x4f	79
134	0x59	89
135	0x1a	26
136	0x72	114
137	0x33	51
138	0x1d	29
139	0xa4	-92
140	0x16	22
141	0x7f	127
142	0x47	71
143	0x24	36

model_2/conv2d_3/Conv2D/ReadVariableOp i1 [16, 1, 1, 16]
0	0x7f	127
1	0x0f	15
2	0xc6	-58
3	0xfa	-6
4	0x03	3
5	0xe6	-26
6	0x0e	14
7	0xe4	-28
8	0x3e	62
9	0x7b	123
10	0x0d	13
11	0xe5	-27
12	0xfd	-3
13	0x61	97
14	0xeb	-21
15	0xf7	-9
16	0xd8	-40
17	0x7f	127
18	0x0f	15
19	0x85	-123
20	0xb8	-72
21	0x61	97
22	0x2a	42
23	0x65	101
24	0xd8	-40
25	0xf5	-11
26	0x95	-107
27	0x0b	11
28	0x50	80
29	0xfc	-4
30	0xd8	-40
31	0xf1	-15
32	0x5e	94
33	0xd0	-48
34	0xfa	-6
35	0xf4	-12
36	0x44	68
37	0x31	49
38	0x04	4
39	0x02	2
40	0x72	114
41	0x7f	127
42	0x1d	29
43	0x6b	107
44	0x47	71
45	0x39	57
46	0x64	100
47	0x3e	62
48	0x4b	75
49	0x37	55
50	0xf1	-15
51	0xff	-1
52	0x81	-127
53	0x33	51
54	0x75	117
55	0x3b	59
56	0x4a	74
57	0x74	116
58	0xd4	-44
59	0x94	-108
60	0x16	22
61	0xe7	-25
62	0x71	113
63	0x67	103
64	0x83	-125
65	0x01	1
66	0xf2	-14
67	0x53	83
68	0x7f	127
69	0xe1	-31
70	0x08	8
71	0x38	56
72	0xa1	-95
73	0x9b	-101
74	0x1a	26
75	0x13	19
76	0x2a	42
77	0xc1	-63
78	0xb8	-72
79	0xb8	-72
80	0x2d	45
81	0x98	-104
82	0x0c	12
83	0x7f	127
84	0x82	-126
85	0xd6	-42
86	0xa7	-89
87	0x29	41
88	0x0d	13
89	0xfe	-2
90	0x35	53
91	0xc3	-61
92	0xdb	-37
93	0x49	73
94	0xcb	-53
95	0xe7	-25
96	0x51	81
97	0xcb	-53
98	0xc7	-57
99	0x00	0
100	0x0c	12
101	0xed	-19
102	0x81	-127
103	0x17	23
104	0xda	-38
105	0x09	9
106	0x23	35
107	0xe8	-24
108	0xe5	-27
109	0xfb	-5
110	0x06	6
111	0xc2	-62
112	0x18	24
113	0x58	88
114	0x7f	127
115	0x84	-124
116	0x18	24
117	0xc1	-63
118	0x47	71
119	0x12	18
120	0xa8	-88
121	0x1b	27
122	0x8e	-114
123	0xd0	-48
124	0x20	32
125	0xbe	-66
126	0x10	16
127	0x35	53
128	0x96	-106
129	0x00	0
130	0x1c	28
131	0xed	-19
132	0xec	-20
133	0x0a	10
134	0x81	-127
135	0x41	65
136	0xea	-22
137	0x9d	-99
138	0x15	21
139	0x8b	-117
140	0xf0	-16
141	0x00	0
142	0x44	68
143	0x0d	13
144	0x02	2
145	0x00	0
146	0x81	-127
147	0xe6	-26
148	0x32	50
149	0xf4	-12
150	0x4f	79
151	0xe3	-29
152	0x0d	13
153	0x45	69
154	0xc1	-63
155	0x07	7
156	0xf7	-9
157	0x12	18
158	0xe2	-30
159	0x15	21
160	0x14	20
161	0xeb	-21
162	0x26	38
163	0x4f	79
164	0xee	-18
165	0x0c	12
166	0x81	-127
167	0x2a	42
168	0x93	-109
169	0x5e	94
170	0x40	64
171	0xce	-50
172	0x4a	74
173	0xfb	-5
174	0x17	23
175	0x24	36
176	0x7f	127
177	0x95	-107
178	0x33	51
179	0xbd	-67
180	0xce	-50
181	0x26	38
182	0xea	-22
183	0x0d	13
184	0x5d	93
185	0x2d	45
186	0x0a	10
187	0xf2	-14
188	0x41	65
189	0x76	118
190	0x0c	12
191	0x90	-112
192	0x98	-104
193	0xcf	-49
194	0x7f	127
195	0x07	7
196	0x3a	58
197	0xd7	-41
198	0x1d	29
199	0x46	70
200	0xac	-84
201	0xe1	-31
202	0xe1	-31
203	0x31	49
204	0x09	9
205	0x20	32
206	0x3c	60
207	0x8c	-116
208	0x02	2
209	0xd7	-41
210	0x6d	109
211	0x24	36
212	0x87	-121
213	0x04	4
214	0xf4	-12
215	0x1b	27
216	0xe8	-24
217	0x63	99
218	0x5d	93
219	0x81	-127
220	0x0e	14
221	0xd3	-45
222	0xdc	-36
223	0xff	-1
224	0xa9	-87
225	0xca	-54
226	0x2a	42
227	0x81	-127
228	0x1a	26
229	0x10	16
230	0x2c	44
231	0xe0	-32
232	0x9d	-99
233	0xae	-82
234	0xa3	-93
235	0x38	56
236	0xbf	-65
237	0xca	-54
238	0xcd	-51
239	0xc8	-56
240	0xd5	-43
241	0xaf	-81
242	0xd2	-46
243	0xd6	-42
244	0xef	-17
245	0x54	84
246	0x81	-127
247	0x48	72
248	0x0b	11
249	0x00	0
250	0xfd	-3
251	0x29	41
252	0xff	-1
253	0xd4	-44
254	0xff	-1
255	0x05	5

model_2/depthwise_conv2d_3/depthwise/ReadVariableOp i1 [1, 3, 3, 16]
0	0x33	51
1	0x06	6
2	0x81	-127
3	0x60	96
4	0x81	-127
5	0x0f	15
6	0xf3	-13
7	0x07	7
8	0x7f	127
9	0x48	72
10	0x1e	30
11	0x1f	31
12	0x7f	127
13	0xae	-82
14	0x9d	-99
15	0x26	38
16	0x09	9
17	0x24	36
18	0x17	23
19	0x69	105
20	0xe8	-24
21	0x22	34
22	0xf1	-15
23	0xfe	-2
24	0xee	-18
25	0x23	35
26	0xd4	-44
27	0x7f	127
28	0xee	-18
29	0x1b	27
30	0x81	-127
31	0xf8	-8
32	0xfe	-2
33	0xea	-22
34	0xce	-50
35	0x7f	127
36	0x3d	61
37	0x0d	13
38	0x0a	10
39	0x25	37
40	0xac	-84
41	0x2d	45
42	0xde	-34
43	0xd4	-44
44	0x07	7
45	0x16	22
46	0x34	52
47	0x81	-127
48	0x81	-127
49	0xfe	-2
50	0x88	-120
51	0xb0	-80
52	0xa8	-88
53	0x63	99
54	0xd4	-44
55	0x09	9
56	0x4a	74
57	0x1e	30
58	0x7f	127
59	0xe5	-27
60	0xa8	-88
61	0x98	-104
62	0x18	24
63	0xdc	-36
64	0xf9	-7
65	0x37	55
66	0x0f	15
67	0x1c	28
68	0x18	24
69	0x95	-107
70	0xb2	-78
71	0xff	-1
72	0x0c	12
73	0x0f	15
74	0xaf	-81
75	0x04	4
76	0x35	53
77	0x07	7
78	0x12	18
79	0xcf	-49
80	0x98	-104
81	0xcb	-53
82	0xee	-18
83	0x26	38
84	0x08	8
85	0xf0	-16
86	0xc7	-57
87	0x12	18
88	0xb3	-77
89	0x2d	45
90	0xb1	-79
91	0x36	54
92	0x3e	62
93	0x36	54
94	0xe6	-26
95	0x12	18
96	0xfe	-2
97	0x22	34
98	0xe2	-30
99	0xd4	-44
100	0xce	-50
101	0x30	48
102	0x4d	77
103	0xb3	-77
104	0x33	51
105	0x7f	127
106	0x5d	93
107	0xfa	-6
108	0x2a	42
109	0x81	-127
110	0x48	72
111	0xfe	-2
112	0x9d	-99
113	0x6b	107
114	0xf5	-11
115	0x16	22
116	0x07	7
117	0x7f	127
118	0x7f	127
119	0x81	-127
120	0x01	1
121	0xd6	-42
122	0xf6	-10
123	0x8b	-117
124	0xf7	-9
125	0x0b	11
126	0x5c	92
127	0x05	5
128	0x3a	58
129	0x81	-127
130	0xd5	-43
131	0xf0	-16
132	0x2f	47
133	0x3a	58
134	0x06	6
135	0xe9	-23
136	0xc6	-58
137	0x20	32
138	0xb3	-77
139	0x06	6
140	0x1b	27
141	0x4a	74
142	0xf0	-16
143	0xf9	-7

model_2/conv2d_4/Conv2D/ReadVariableOp i1 [16, 1, 1, 16]
0	0xa1	-95
1	0x11	17
2	0xd6	-42
3	0xef	-17
4	0xc2	-62
5	0xe8	-24
6	0xcd	-51
7	0xe6	-26
8	0xc1	-63
9	0x5a	90
10	0x39	57
11	0xd5	-43
12	0x1b	27
13	0x7f	127
14	0xec	-20
15	0x10	16
16	0x28	40
17	0xf8	-8
18	0xcf	-49
19	0xfc	-4
20	0x33	51
21	0xfe	-2
22	0x81	-127
23	0xc2	-62
24	0x29	41
25	0xc5	-59
26	0xc0	-64
27	0x48	72
28	0x20	32
29	0x17	23
30	0x56	86
31	0x21	33
32	0xdf	-33
33	0xfc	-4
34	0x84	-124
35	0x7f	127
36	0x31	49
37	0xf0	-16
38	0xc3	-61
39	0xeb	-21
40	0x07	7
41	0xe5	-27
42	0x19	25
43	0x22	34
44	0x0a	10
45	0x8b	-117
46	0x9a	-102
47	0x45	69
48	0x48	72
49	0xc4	-60
50	0x4d	77
51	0x81	-127
52	0xe8	-24
53	0x69	105
54	0x29	41
55	0x38	56
56	0x31	49
57	0xef	-17
58	0x00	0
59	0x04	4
60	0xb1	-79
61	0xc7	-57
62	0x05	5
63	0x42	66
64	0x2b	43
65	0x99	-103
66	0xf7	-9
67	0xfa	-6
68	0xe5	-27
69	0x1e	30
70	0xd3	-45
71	0x7f	127
72	0x1e	30
73	0x96	-106
74	0x0e	14
75	0xca	-54
76	0xce	-50
77	0x0b	11
78	0xba	-70
79	0xc3	-61
80	0x03	3
81	0xef	-17
82	0xc8	-56
83	0xad	-83
84	0xc3	-61
85	0x83	-125
86	0xfe	-2
87	0xe8	-24
88	0xec	-20
89	0x01	1
90	0xc1	-63
91	0x7f	127
92	0x07	7
93	0x3c	60
94	0x16	22
95	0xba	-70
96	0x0e	14
97	0xff	-1
98	0x66	102
99	0x81	-127
100	0xe7	-25
101	0x03	3
102	0xcf	-49
103	0xec	-20
104	0xad	-83
105	0xc1	-63
106	0x10	16
107	0x1b	27
108	0x21	33
109	0xd2	-46
110	0x2a	42
111	0xc4	-60
112	0xeb	-21
113	0x5c	92
114	0xbe	-66
115	0xfb	-5
116	0xca	-54
117	0x18	24
118	0xfe	-2
119	0xf6	-10
120	0x4e	78
121	0xce	-50
122	0x7f	127
123	0x0d	13
124	0x15	21
125	0x15	21
126	0x0a	10
127	0x32	50
128	0xc8	-56
129	0x7f	127
130	0x9f	-97
131	0xd0	-48
132	0x61	97
133	0xdb	-37
134	0xdc	-36
135	0xd9	-39
136	0x66	102
137	0x2c	44
138	0x53	83
139	0x17	23
140	0xd0	-48
141	0x5b	91
142	0xf2	-14
143	0x00	0
144	0xad	-83
145	0xd7	-41
146	0xed	-19
147	0x0a	10
148	0xc3	-61
149	0x74	116
150	0x52	82
151	0xe3	-29
152	0xe3	-29
153	0xbd	-67
154	0x02	2
155	0xca	-54
156	0x07	7
157	0x81	-127
158	0x2a	42
159	0x71	113
160	0xf2	-14
161	0xdc	-36
162	0x81	-127
163	0x07	7
164	0x8d	-115
165	0x45	69
166	0x15	21
167	0xe8	-24
168	0xe1	-31
169	0x33	51
170	0x5f	95
171	0x7c	124
172	0xca	-54
173	0x49	73
174	0x30	48
175	0xe9	-23
176	0x3a	58
177	0xe1	-31
178	0xb5	-75
179	0xc2	-62
180	0xbd	-67
181	0x54	84
182	0x93	-109
183	0x29	41
184	0xf1	-15
185	0xa2	-94
186	0x85	-123
187	0xde	-34
188	0x0f	15
189	0xc6	-58
190	0x22	34
191	0x81	-127
192	0x47	71
193	0x91	-111
194	0x5c	92
195	0xae	-82
196	0xaa	-86
197	0xe5	-27
198	0x1f	31
199	0xf8	-8
200	0x8f	-113
201	0xe3	-29
202	0x33	51
203	0xb3	-77
204	0x7f	127
205	0x27	39
206	0x5e	94
207	0x5f	95
208	0xbd	-67
209	0x10	16
210	0xe9	-23
211	0xff	-1
212	0x7f	127
213	0x07	7
214	0xfb	-5
215	0x21	33
216	0x24	36
217	0xa3	-93
218	0x22	34
219	0xda	-38
220	0xae	-82
221	0xf5	-11
222	0xdb	-37
223	0xc5	-59
224	0x21	33
225	0xd6	-42
226	0xb2	-78
227	0xe0	-32
228	0x09	9
229	0xd1	-47
230	0x3b	59
231	0xf3	-13
232	0x20	32
233	0xdb	-37
234	0xd7	-41
235	0x71	113
236	0x22	34
237	0xfc	-4
238	0x7f	127
239	0x1d	29
240	0xdb	-37
241	0x18	24
242	0xc1	-63
243	0x7f	127
244	0x03	3
245	0x33	51
246	0x39	57
247	0x15	21
248	0xd9	-39
249	0xb8	-72
250	0xf9	-7
251	0x48	72
252	0xcb	-53
253	0xd0	-48
254	0xc3	-61
255	0x25	37

model_2/depthwise_conv2d_4/depthwise/ReadVariableOp i1 [1, 3, 3, 16]
0	0x17	23
1	0xd2	-46
2	0xbb	-69
3	0x81	-127
4	0xd4	-44
5	0x62	98
6	0x81	-127
7	0x37	55
8	0x04	4
9	0xe1	-31
10	0x41	65
11	0x81	-127
12	0x2d	45
13	0xd0	-48
14	0x81	-127
15	0x4d	77
16	0x15	21
17	0x5a	90
18	0xbc	-68
19	0xa3	-93
20	0xf7	-9
21	0x64	100
22	0xfd	-3
23	0x4c	76
24	0xb1	-79
25	0x81	-127
26	0x54	84
27	0x8b	-117
28	0x30	48
29	0x9e	-98
30	0x94	-108
31	0x7f	127
32	0xc1	-63
33	0x46	70
34	0x81	-127
35	0x06	6
36	0x3b	59
37	0x49	73
38	0x1b	27
39	0x7f	127
40	0xe2	-30
41	0xb7	-73
42	0x5f	95
43	0xd0	-48
44	0x5f	95
45	0x81	-127
46	0x8b	-117
47	0x4a	74
48	0xee	-18
49	0x46	70
50	0xf2	-14
51	0xb9	-71
52	0x29	41
53	0x20	32
54	0xbe	-66
55	0xda	-38
56	0xb6	-74
57	0xc3	-61
58	0x81	-127
59	0xd0	-48
60	0x7f	127
61	0x03	3
62	0xb5	-75
63	0x60	96
64	0xdc	-36
65	0x7f	127
66	0xf4	-12
67	0xa6	-90
68	0x31	49
69	0x7f	127
70	0xcf	-49
71	0x37	55
72	0xa3	-93
73	0xa0	-96
74	0x2f	47
75	0xa6	-90
76	0x79	121
77	0xdb	-37
78	0xb5	-75
79	0x74	116
80	0xdf	-33
81	0x2d	45
82	0x0e	14
83	0x1b	27
84	0x34	52
85	0x16	22
86	0x31	49
87	0x2b	43
88	0xaf	-81
89	0xa4	-92
90	0x5e	94
91	0xb0	-80
92	0x53	83
93	0xb8	-72
94	0xcd	-51
95	0x12	18
96	0x81	-127
97	0x65	101
98	0xf3	-13
99	0xd3	-45
100	0x98	-104
101	0xcd	-51
102	0x09	9
103	0xbb	-69
104	0xbe	-66
105	0xe5	-27
106	0xe0	-32
107	0x4e	78
108	0x29	41
109	0x02	2
110	0x06	6
111	0xb4	-76
112	0xa3	-93
113	0xd7	-41
114	0x19	25
115	0x04	4
116	0x81	-127
117	0x0a	10
118	0x25	37
119	0x33	51
120	0x81	-127
121	0xcb	-53
122	0xcc	-52
123	0xe5	-27
124	0xd7	-41
125	0x08	8
126	0xf0	-16
127	0xed	-19
128	0xc8	-56
129	0x1d	29
130	0x16	22
131	0x20	32
132	0x84	-124
133	0x03	3
134	0x1c	28
135	0x90	-112
136	0xcd	-51
137	0xf0	-16
138	0xe5	-27
139	0xe2	-30
140	0xf9	-7
141	0x0f	15
142	0xff	-1
143	0x3a	58

model_2/conv2d_5/Conv2D/ReadVariableOp i1 [32, 1, 1, 16]
0	0x0c	12
1	0x4f	79
2	0xdd	-35
3	0x28	40
4	0x4c	76
5	0x7f	127
6	0x12	18
7	0x08	8
8	0x0e	14
9	0xcd	-51
10	0x3b	59
11	0x40	64
12	0x05	5
13	0x3f	63
14	0x8e	-114
15	0xe3	-29
16	0xa4	-92
17	0x0b	11
18	0x27	39
19	0xf5	-11
20	0xe2	-30
21	0x8e	-114
22	0x2f	47
23	0x08	8
24	0xc9	-55
25	0x0b	11
26	0xc7	-57
27	0x2e	46
28	0x2f	47
29	0x6c	108
30	0x21	33
31	0x81	-127
32	0x7f	127
33	0x3c	60
34	0xf0	-16
35	0x0d	13
36	0xe0	-32
37	0x8d	-115
38	0xce	-50
39	0x83	-125
40	0x7b	123
41	0xe1	-31
42	0x05	5
43	0x0e	14
44	0x4f	79
45	0x2e	46
46	0x24	36
47	0x0f	15
48	0x09	9
49	0x59	89
50	0xd8	-40
51	0xcc	-52
52	0xe3	-29
53	0x20	32
54	0xff	-1
55	0xfe	-2
56	0x95	-107
57	0x1f	31
58	0x7f	127
59	0xfb	-5
60	0xe9	-23
61	0x6b	107
62	0xe1	-31
63	0xdf	-33
64	0x3d	61
65	0x26	38
66	0x06	6
67	0xc6	-58
68	0x3e	62
69	0x0a	10
70	0xc8	-56
71	0xf6	-10
72	0xfa	-6
73	0x9c	-100
74	0x29	41
75	0xbd	-67
76	0x00	0
77	0xfe	-2
78	0x81	-127
79	0x1e	30
80	0xee	-18
81	0xd8	-40
82	0xc8	-56
83	0x07	7
84	0xeb	-21
85	0x2f	47
86	0xfd	-3
87	0xf8	-8
88	0x81	-127
89	0xeb	-21
90	0xcd	-51
91	0x06	6
92	0xdc	-36
93	0xf0	-16
94	0x00	0
95	0xe2	-30
96	0x2f	47
97	0xf1	-15
98	0xf6	-10
99	0xe6	-26
100	0x81	-127
101	0x11	17
102	0xf8	-8
103	0x3f	63
104	0x0d	13
105	0xf2	-14
106	0x2a	42
107	0xab	-85
108	0x09	9
109	0x36	54
110	0xf6	-10
111	0x16	22
112	0xc1	-63
113	0xe7	-25
114	0x4b	75
115	0xf3	-13
116	0x04	4
117	0xdc	-36
118	0xac	-84
119	0x81	-127
120	0x06	6
121	0xfc	-4
122	0xa3	-93
123	0xc6	-58
124	0x1c	28
125	0xc9	-55
126	0x4a	74
127	0xbf	-65
128	0xdd	-35
129	0x69	105
130	0x8c	-116
131	0x05	5
132	0x1e	30
133	0xde	-34
134	0xdb	-37
135	0xfb	-5
136	0xa4	-92
137	0xbc	-68
138	0x12	18
139	0x38	56
140	0xef	-17
141	0x32	50
142	0x81	-127
143	0x1f	31
144	0x0c	12
145	0xc3	-61
146	0xa4	-92
147	0xcc	-52
148	0x81	-127
149	0xb4	-76
150	0x31	49
151	0x82	-126
152	0xf4	-12
153	0x10	16
154	0x37	55
155	0x20	32
156	0xaf	-81
157	0xdb	-37
158	0x0e	14
159	0xdd	-35
160	0x34	52
161	0x1c	28
162	0x03	3
163	0xe1	-31
164	0x81	-127
165	0x14	20
166	0xff	-1
167	0xdf	-33
168	0xea	-22
169	0x5c	92
170	0xf3	-13
171	0xbf	-65
172	0x23	35
173	0xe6	-26
174	0xcc	-52
175	0x97	-105
176	0x7f	127
177	0x0d	13
178	0x15	21
179	0xd0	-48
180	0xfd	-3
181	0xaf	-81
182	0xf2	-14
183	0xc7	-57
184	0x53	83
185	0xdb	-37
186	0xde	-34
187	0x08	8
188	0xd3	-45
189	0x34	52
190	0x1c	28
191	0x34	52
192	0x0e	14
193	0x03	3
194	0x86	-122
195	0x48	72
196	0xc4	-60
197	0xea	-22
198	0x5d	93
199	0xe5	-27
200	0x81	-127
201	0xed	-19
202	0x10	16
203	0xc1	-63
204	0xbf	-65
205	0x89	-119
206	0x8f	-113
207	0x10	16
208	0xe1	-31
209	0x0d	13
210	0xb2	-78
211	0xd3	-45
212	0xf3	-13
213	0xeb	-21
214	0x4b	75
215	0x18	24
216	0xf6	-10
217	0x81	-127
218	0x2c	44
219	0xe2	-30
220	0xad	-83
221	0xdb	-37
222	0xed	-19
223	0x4d	77
224	0x09	9
225	0x81	-127
226	0x02	2
227	0xf1	-15
228	0x0f	15
229	0xde	-34
230	0xff	-1
231	0x01	1
232	0x7c	124
233	0x11	17
234	0xec	-20
235	0xfa	-6
236	0x0b	11
237	0x07	7
238	0x42	66
239	0x25	37
240	0x4e	78
241	0x67	103
242	0xdb	-37
243	0x13	19
244	0xc9	-55
245	0x0c	12
246	0x85	-123
247	0x0f	15
248	0xcd	-51
249	0xc8	-56
250	0xff	-1
251	0xfa	-6
252	0x7f	127
253	0x6d	109
254	0x91	-111
255	0x9a	-102

model_2/depthwise_conv2d_5/depthwise/ReadVariableOp i1 [1, 3, 3, 32]
0	0x6a	106
1	0x61	97
2	0x44	68
3	0xff	-1
4	0xfd	-3
5	0xef	-17
6	0xdf	-33
7	0x04	4
8	0x5d	93
9	0xe4	-28
10	0x7f	127
11	0xc3	-61
12	0x7f	127
13	0x7f	127
14	0xd0	-48
15	0xfa	-6
16	0xa2	-94
17	0x81	-127
18	0x03	3
19	0x81	-127
20	0x4e	78
21	0x0d	13
22	0x1d	29
23	0x3b	59
24	0x6c	108
25	0x81	-127
26	0xd4	-44
27	0x3a	58
28	0xe3	-29
29	0x60	96
30	0xf4	-12
31	0x9b	-101
32	0xe3	-29
33	0x7f	127
34	0xec	-20
35	0x02	2
36	0x23	35
37	0x0a	10
38	0xfb	-5
39	0x35	53
40	0x9e	-98
41	0x14	20
42	0x28	40
43	0x18	24
44	0x16	22
45	0x09	9
46	0x29	41
47	0x7f	127
48	0x81	-127
49	0xe2	-30
50	0xc6	-58
51	0xbf	-65
52	0x7f	127
53	0x40	64
54	0xda	-38
55	0x02	2
56	0x7f	127
57	0x04	4
58	0xf5	-11
59	0x7f	127
60	0xea	-22
61	0xfd	-3
62	0xed	-19
63	0xb0	-80
64	0x81	-127
65	0x07	7
66	0x8c	-116
67	0x7f	127
68	0x7f	127
69	0x04	4
70	0x7f	127
71	0x7f	127
72	0x45	69
73	0x21	33
74	0xfe	-2
75	0x7f	127
76	0xa9	-87
77	0xcc	-52
78	0xc9	-55
79	0x65	101
80	0x0a	10
81	0xfa	-6
82	0x7f	127
83	0x88	-120
84	0x77	119
85	0x46	70
86	0x63	99
87	0x2d	45
88	0x38	56
89	0xa6	-90
90	0xed	-19
91	0x34	52
92	0xe8	-24
93	0x7f	127
94	0xd1	-47
95	0x7f	127
96	0x25	37
97	0xff	-1
98	0x4a	74
99	0xd3	-45
100	0x0c	12
101	0x17	23
102	0xda	-38
103	0xc2	-62
104	0xf7	-9
105	0xe8	-24
106	0x73	115
107	0x66	102
108	0x21	33
109	0x2f	47
110	0xfe	-2
111	0xf1	-15
112	0x16	22
113	0x03	3
114	0xec	-20
115	0x1e	30
116	0xa4	-92
117	0xc7	-57
118	0x27	39
119	0x25	37
120	0xf3	-13
121	0xdf	-33
122	0xea	-22
123	0xf8	-8
124	0xe2	-30
125	0x0e	14
126	0x56	86
127	0xd3	-45
128	0xa1	-95
129	0x11	17
130	0xfa	-6
131	0x24	36
132	0xfd	-3
133	0x02	2
134	0x07	7
135	0x05	5
136	0x4b	75
137	0x1a	26
138	0x4f	79
139	0x29	41
140	0xe1	-31
141	0xd8	-40
142	0x31	49
143	0x44	68
144	0x06	6
145	0xd2	-46
146	0x21	33
147	0xdc	-36
148	0x04	4
149	0xd8	-40
150	0x9c	-100
151	0x22	34
152	0xf2	-14
153	0x27	39
154	0xd0	-48
155	0x01	1
156	0xf4	-12
157	0xb7	-73
158	0x9c	-100
159	0xb0	-80
160	0x8b	-117
161	0x01	1
162	0xd9	-39
163	0x3f	63
164	0x32	50
165	0x24	36
166	0x2d	45
167	0x1f	31
168	0x64	100
169	0xe7	-25
170	0x2b	43
171	0x56	86
172	0xdd	-35
173	0x00	0
174	0x81	-127
175	0x21	33
176	0x16	22
177	0x26	38
178	0xf6	-10
179	0x0e	14
180	0xed	-19
181	0x15	21
182	0xb7	-73
183	0x12	18
184	0xe2	-30
185	0x11	17
186	0x08	8
187	0xf1	-15
188	0xd5	-43
189	0x75	117
190	0xae	-82
191	0x29	41
192	0x76	118
193	0xf0	-16
194	0x7f	127
195	0x22	34
196	0x02	2
197	0x81	-127
198	0x3d	61
199	0xca	-54
200	0x7f	127
201	0xd4	-44
202	0x2d	45
203	0xe2	-30
204	0x44	68
205	0x9b	-101
206	0xf9	-7
207	0xdc	-36
208	0x51	81
209	0xc3	-61
210	0x39	57
211	0x16	22
212	0xd9	-39
213	0xad	-83
214	0x1a	26
215	0xc9	-55
216	0xf8	-8
217	0xde	-34
218	0xcc	-52
219	0xef	-17
220	0xa1	-95
221	0x2e	46
222	0x7f	127
223	0x16	22
224	0x2a	42
225	0x01	1
226	0xea	-22
227	0x15	21
228	0x19	25
229	0xc8	-56
230	0x11	17
231	0xf2	-14
232	0x25	37
233	0xee	-18
234	0xce	-50
235	0xab	-85
236	0xcc	-52
237	0x19	25
238	0x3a	58
239	0x44	68
240	0x6b	107
241	0x01	1
242	0x48	72
243	0xd0	-48
244	0x13	19
245	0x81	-127
246	0x7f	127
247	0x81	-127
248	0x0f	15
249	0x4b	75
250	0xdb	-37
251	0x0f	15
252	0x7f	127
253	0xb2	-78
254	0x19	25
255	0xef	-17

model_2/conv2d_6/Conv2D/ReadVariableOp i1 [32, 1, 1, 32]
0	0x24	36
1	0xf5	-11
2	0x2b	43
3	0x16	22
4	0x1a	26
5	0x19	25
6	0x18	24
7	0x0f	15
8	0x0d	13
9	0x0b	11
10	0xab	-85
11	0x2c	44
12	0x7f	127
13	0x0a	10
14	0x06	6
15	0x38	56
16	0x8e	-114
17	0x92	-110
18	0x6f	111
19	0xbd	-67
20	0xd8	-40
21	0xc4	-60
22	0x56	86
23	0xb6	-74
24	0xdd	-35
25	0xb7	-73
26	0xd7	-41
27	0x18	24
28	0x7e	126
29	0xf4	-12
30	0x25	37
31	0x56	86
32	0x8b	-117
33	0x30	48
34	0x23	35
35	0xa4	-92
36	0xc8	-56
37	0x3a	58
38	0x20	32
39	0x1e	30
40	0xcb	-53
41	0x5b	91
42	0x50	80
43	0x18	24
44	0x8a	-118
45	0x81	-127
46	0xf6	-10
47	0x24	36
48	0xca	-54
49	0x34	52
50	0xf1	-15
51	0xef	-17
52	0xad	-83
53	0xf5	-11
54	0x8a	-118
55	0xdc	-36
56	0x1a	26
57	0x2d	45
58	0x3e	62
59	0x6e	110
60	0xf3	-13
61	0x78	120
62	0x23	35
63	0x18	24
64	0xe4	-28
65	0x23	35
66	0xcf	-49
67	0x59	89
68	0x1e	30
69	0x65	101
70	0xe2	-30
71	0x7f	127
72	0x18	24
73	0x1f	31
74	0x17	23
75	0xc5	-59
76	0xde	-34
77	0xfa	-6
78	0xa6	-90
79	0x21	33
80	0x0d	13
81	0x3e	62
82	0x47	71
83	0xa5	-91
84	0x2b	43
85	0x47	71
86	0xe9	-23
87	0x66	102
88	0xc4	-60
89	0x1a	26
90	0x56	86
91	0x1b	27
92	0x24	36
93	0x0f	15
94	0xdc	-36
95	0x9f	-97
96	0x1e	30
97	0x22	34
98	0xda	-38
99	0xff	-1
100	0x06	6
101	0x1b	27
102	0xb7	-73
103	0x84	-124
104	0xf8	-8
105	0xe0	-32
106	0xe6	-26
107	0x8d	-115
108	0x89	-119
109	0x11	17
110	0x12	18
111	0xad	-83
112	0x88	-120
113	0x3c	60
114	0x08	8
115	0x83	-125
116	0xa2	-94
117	0x81	-127
118	0x11	17
119	0x65	101
120	0x65	101
121	0xa5	-91
122	0x13	19
123	0xec	-20
124	0xeb	-21
125	0x99	-103
126	0x4d	77
127	0xa4	-92
128	0xe9	-23
129	0xf4	-12
130	0x55	85
131	0xc5	-59
132	0x04	4
133	0x61	97
134	0x2b	43
135	0xdf	-33
136	0xde	-34
137	0xdc	-36
138	0xf9	-7
139	0x21	33
140	0xa8	-88
141	0xfe	-2
142	0xbd	-67
143	0xf3	-13
144	0x81	-127
145	0xda	-38
146	0x1f	31
147	0x09	9
148	0xbc	-68
149	0xd6	-42
150	0x27	39
151	0x34	52
152	0x05	5
153	0xcd	-51
154	0x40	64
155	0xcd	-51
156	0xf2	-14
157	0xf6	-10
158	0xf3	-13
159	0x68	104
160	0x0a	10
161	0x4b	75
162	0xee	-18
163	0x32	50
164	0xf1	-15
165	0x81	-127
166	0xef	-17
167	0x05	5
168	0x2d	45
169	0x16	22
170	0x2d	45
171	0xee	-18
172	0x55	85
173	0x4e	78
174	0x52	82
175	0xed	-19
176	0xb5	-75
177	0x21	33
178	0x18	24
179	0xdb	-37
180	0xf1	-15
181	0x2a	42
182	0x1a	26
183	0x85	-123
184	0x11	17
185	0x07	7
186	0x03	3
187	0x2e	46
188	0x45	69
189	0x0e	14
190	0xef	-17
191	0x2e	46
192	0x3a	58
193	0x1b	27
194	0x14	20
195	0xdc	-36
196	0x81	-127
197	0xb2	-78
198	0x82	-126
199	0x20	32
200	0xf7	-9
201	0x00	0
202	0x04	4
203	0xd2	-46
204	0xdc	-36
205	0xf7	-9
206	0xd4	-44
207	0x20	32
208	0xbb	-69
209	0x0b	11
210	0x49	73
211	0xc8	-56
212	0xc2	-62
213	0xca	-54
214	0xd3	-45
215	0xd3	-45
216	0xc8	-56
217	0xa2	-94
218	0x2a	42
219	0xfb	-5
220	0x0b	11
221	0x30	48
222	0xeb	-21
223	0xff	-1
224	0x01	1
225	0xd8	-40
226	0xd9	-39
227	0xfb	-5
228	0x2e	46
229	0x0e	14
230	0x16	22
231	0x7e	126
232	0x22	34
233	0xf1	-15
234	0x2d	45
235	0xf2	-14
236	0xb9	-71
237	0x44	68
238	0xe4	-28
239	0x00	0
240	0xee	-18
241	0x81	-127
242	0xd0	-48
243	0xcf	-49
244	0xec	-20
245	0x23	35
246	0xbe	-66
247	0xe9	-23
248	0xd2	-46
249	0x20	32
250	0x38	56
251	0xbc	-68
252	0xae	-82
253	0x5c	92
254	0xdd	-35
255	0xe6	-26

model_2/depthwise_conv2d_6/depthwise/ReadVariableOp i1 [1, 3, 3, 32]
0	0xc1	-63
1	0x7f	127
2	0x23	35
3	0x13	19
4	0x81	-127
5	0xfe	-2
6	0x2e	46
7	0x81	-127
8	0x20	32
9	0xdf	-33
10	0x81	-127
11	0x8f	-113
12	0xc3	-61
13	0x81	-127
14	0x9e	-98
15	0x81	-127
16	0x81	-127
17	0x95	-107
18	0xf5	-11
19	0xba	-70
20	0xd6	-42
21	0x31	49
22	0xea	-22
23	0xe2	-30
24	0xcf	-49
25	0x1e	30
26	0x25	37
27	0x50	80
28	0x09	9
29	0x18	24
30	0x7f	127
31	0xc1	-63
32	0x3a	58
33	0x2e	46
34	0xe4	-28
35	0x44	68
36	0x3f	63
37	0x21	33
38	0xf3	-13
39	0xc9	-55
40	0xed	-19
41	0xf7	-9
42	0xe9	-23
43	0xe5	-27
44	0x87	-121
45	0xf2	-14
46	0xa5	-91
47	0x89	-119
48	0xfd	-3
49	0x02	2
50	0xb8	-72
51	0x87	-121
52	0xed	-19
53	0xf3	-13
54	0x0e	14
55	0x2b	43
56	0x37	55
57	0xff	-1
58	0xad	-83
59	0xe5	-27
60	0xec	-20
61	0x16	22
62	0x07	7
63	0x82	-126
64	0xd3	-45
65	0x1c	28
66	0xd4	-44
67	0x0f	15
68	0x42	66
69	0xf7	-9
70	0x81	-127
71	0xcf	-49
72	0x7f	127
73	0x05	5
74	0x6a	106
75	0x46	70
76	0x11	17
77	0xeb	-21
78	0xa3	-93
79	0x11	17
80	0xe2	-30
81	0x16	22
82	0x81	-127
83	0x81	-127
84	0x28	40
85	0xff	-1
86	0x6b	107
87	0x7f	127
88	0x7f	127
89	0xb6	-74
90	0x7f	127
91	0x81	-127
92	0x28	40
93	0x12	18
94	0xd8	-40
95	0x81	-127
96	0xf3	-13
97	0x16	22
98	0x12	18
99	0xca	-54
100	0xd3	-45
101	0xef	-17
102	0xee	-18
103	0x03	3
104	0x08	8
105	0xee	-18
106	0xc2	-62
107	0x84	-124
108	0xeb	-21
109	0xcb	-53
110	0x30	48
111	0xf1	-15
112	0xfc	-4
113	0x05	5
114	0x0e	14
115	0x14	20
116	0xf6	-10
117	0x34	52
118	0xc9	-55
119	0x00	0
120	0x1e	30
121	0xfe	-2
122	0xee	-18
123	0x07	7
124	0x0d	13
125	0x08	8
126	0x62	98
127	0x2b	43
128	0xfe	-2
129	0xea	-22
130	0xf8	-8
131	0xf0	-16
132	0xf3	-13
133	0x21	33
134	0x06	6
135	0x03	3
136	0xd6	-42
137	0x24	36
138	0x09	9
139	0xf7	-9
140	0x13	19
141	0x26	38
142	0xe3	-29
143	0xf5	-11
144	0xf9	-7
145	0x56	86
146	0xdb	-37
147	0xf0	-16
148	0xf6	-10
149	0xdd	-35
150	0xd5	-43
151	0x1b	27
152	0x0d	13
153	0x25	37
154	0xb1	-79
155	0x05	5
156	0xd4	-44
157	0x0d	13
158	0xca	-54
159	0x1e	30
160	0xdf	-33
161	0xf1	-15
162	0xbf	-65
163	0x1f	31
164	0xd3	-45
165	0x09	9
166	0xcb	-53
167	0x27	39
168	0x0c	12
169	0x13	19
170	0x40	64
171	0x2e	46
172	0x81	-127
173	0xe2	-30
174	0xde	-34
175	0x3d	61
176	0xf7	-9
177	0x0e	14
178	0xdd	-35
179	0xe8	-24
180	0x18	24
181	0x7f	127
182	0x4f	79
183	0x07	7
184	0x0c	12
185	0x81	-127
186	0x2a	42
187	0xde	-34
188	0x43	67
189	0x11	17
190	0xfe	-2
191	0xe9	-23
192	0x0e	14
193	0x03	3
194	0x31	49
195	0x7f	127
196	0x01	1
197	0xa3	-93
198	0xfb	-5
199	0xfc	-4
200	0x07	7
201	0x7f	127
202	0xdc	-36
203	0x81	-127
204	0xb5	-75
205	0xdf	-33
206	0x61	97
207	0xb2	-78
208	0x25	37
209	0x81	-127
210	0x4a	74
211	0x25	37
212	0x7f	127
213	0x36	54
214	0xc9	-55
215	0xd8	-40
216	0xfc	-4
217	0xb1	-79
218	0x29	41
219	0xf2	-14
220	0xf6	-10
221	0xa4	-92
222	0x1c	28
223	0x48	72
224	0x7f	127
225	0xfa	-6
226	0x04	4
227	0x25	37
228	0xaa	-86
229	0xc5	-59
230	0xff	-1
231	0x0d	13
232	0xff	-1
233	0xfb	-5
234	0x0b	11
235	0x44	68
236	0x37	55
237	0x1b	27
238	0x34	52
239	0x93	-109
240	0x0d	13
241	0xdf	-33
242	0x12	18
243	0xf4	-12
244	0xd9	-39
245	0x19	25
246	0xd6	-42
247	0xc9	-55
248	0x1e	30
249	0x30	48
250	0xd3	-45
251	0xc5	-59
252	0xb7	-73
253	0xde	-34
254	0xe0	-32
255	0xe4	-28

model_2/conv2d_7/Conv2D/ReadVariableOp i1 [32, 1, 1, 32]
0	0xff	-1
1	0x97	-105
2	0x48	72
3	0x5b	91
4	0xfe	-2
5	0x0a	10
6	0xdd	-35
7	0x5f	95
8	0xf5	-11
9	0x1f	31
10	0x16	22
11	0xa7	-89
12	0xee	-18
13	0xdf	-33
14	0xfc	-4
15	0xcc	-52
16	0x40	64
17	0x2d	45
18	0x91	-111
19	0x4d	77
20	0xf5	-11
21	0x72	114
22	0x4e	78
23	0x06	6
24	0xe7	-25
25	0x29	41
26	0x43	67
27	0x81	-127
28	0x6f	111
29	0xe3	-29
30	0xce	-50
31	0x26	38
32	0xff	-1
33	0x0b	11
34	0xf8	-8
35	0xc5	-59
36	0x26	38
37	0x4b	75
38	0x1a	26
39	0x04	4
40	0x15	21
41	0x0e	14
42	0xf1	-15
43	0xec	-20
44	0xdb	-37
45	0xc8	-56
46	0x0d	13
47	0x21	33
48	0xe2	-30
49	0x5b	91
50	0xff	-1
51	0xfa	-6
52	0xe8	-24
53	0x11	17
54	0x1b	27
55	0x0f	15
56	0x09	9
57	0x1c	28
58	0x3c	60
59	0xbf	-65
60	0xec	-20
61	0x7f	127
62	0x0a	10
63	0xf8	-8
64	0x01	1
65	0xfd	-3
66	0xcd	-51
67	0x20	32
68	0x33	51
69	0x09	9
70	0x0f	15
71	0xdc	-36
72	0x72	114
73	0x1c	28
74	0xe0	-32
75	0xc5	-59
76	0x3d	61
77	0xda	-38
78	0xf1	-15
79	0xb0	-80
80	0x26	38
81	0x29	41
82	0x81	-127
83	0xd2	-46
84	0x2a	42
85	0x17	23
86	0x5d	93
87	0xb8	-72
88	0x2b	43
89	0xf9	-7
90	0x48	72
91	0x31	49
92	0xe5	-27
93	0x1b	27
94	0x25	37
95	0xd8	-40
96	0x3c	60
97	0x45	69
98	0x4c	76
99	0x0a	10
100	0x46	70
101	0xba	-70
102	0xaa	-86
103	0x53	83
104	0x42	66
105	0x47	71
106	0x9d	-99
107	0x1c	28
108	0xd2	-46
109	0xdb	-37
110	0xfa	-6
111	0x20	32
112	0xec	-20
113	0xfd	-3
114	0x12	18
115	0x81	-127
116	0x05	5
117	0xcd	-51
118	0x3c	60
119	0xca	-54
120	0x78	120
121	0x11	17
122	0x5a	90
123	0xec	-20
124	0xe1	-31
125	0xdb	-37
126	0x36	54
127	0xf3	-13
128	0x1c	28
129	0xc6	-58
130	0xef	-17
131	0x07	7
132	0x1a	26
133	0x31	49
134	0x09	9
135	0x7f	127
136	0xf0	-16
137	0x04	4
138	0xb9	-71
139	0xfa	-6
140	0x18	24
141	0x01	1
142	0x56	86
143	0xfb	-5
144	0xe0	-32
145	0xbc	-68
146	0xac	-84
147	0x04	4
148	0xf5	-11
149	0x1c	28
150	0xd8	-40
151	0xe2	-30
152	0x2e	46
153	0xc6	-58
154	0x3c	60
155	0x0f	15
156	0x08	8
157	0xc7	-57
158	0x0f	15
159	0x04	4
160	0x13	19
161	0xed	-19
162	0xeb	-21
163	0x07	7
164	0xe9	-23
165	0x43	67
166	0xfb	-5
167	0x15	21
168	0xe3	-29
169	0xcb	-53
170	0x0e	14
171	0xb6	-74
172	0x08	8
173	0x3d	61
174	0x7f	127
175	0xcf	-49
176	0x41	65
177	0x37	55
178	0xd7	-41
179	0x10	16
180	0xf3	-13
181	0xfe	-2
182	0xff	-1
183	0x0b	11
184	0x1e	30
185	0xce	-50
186	0xec	-20
187	0xf4	-12
188	0xfb	-5
189	0x37	55
190	0xd2	-46
191	0x22	34
192	0x0e	14
193	0xee	-18
194	0x02	2
195	0x45	69
196	0x34	52
197	0xdb	-37
198	0xf8	-8
199	0xde	-34
200	0xc9	-55
201	0x1b	27
202	0xe7	-25
203	0xf1	-15
204	0x57	87
205	0xd1	-47
206	0xf7	-9
207	0xa3	-93
208	0x7f	127
209	0x0e	14
210	0x45	69
211	0xfb	-5
212	0xb3	-77
213	0x4e	78
214	0xf6	-10
215	0xdc	-36
216	0x17	23
217	0x1d	29
218	0xd1	-47
219	0xd6	-42
220	0xef	-17
221	0x20	32
222	0x59	89
223	0xe3	-29
224	0x39	57
225	0x21	33
226	0xd0	-48
227	0x29	41
228	0x18	24
229	0x01	1
230	0x19	25
231	0xb5	-75
232	0xe1	-31
233	0x08	8
234	0xd3	-45
235	0x48	72
236	0xff	-1
237	0x0c	12
238	0xab	-85
239	0x23	35
240	0x72	114
241	0x0b	11
242	0x7f	127
243	0x20	32
244	0xda	-38
245	0x52	82
246	0xe4	-28
247	0x53	83
248	0xed	-19
249	0xca	-54
250	0x29	41
251	0x2f	47
252	0x42	66
253	0x23	35
254	0xb1	-79
255	0x22	34

model_2/depthwise_conv2d_7/depthwise/ReadVariableOp i1 [1, 3, 3, 32]
0	0x74	116
1	0xea	-22
2	0x34	52
3	0xe6	-26
4	0xf8	-8
5	0xb0	-80
6	0x81	-127
7	0x7f	127
8	0x7f	127
9	0x34	52
10	0xbd	-67
11	0xfa	-6
12	0xca	-54
13	0xfa	-6
14	0x95	-107
15	0xcc	-52
16	0xea	-22
17	0x81	-127
18	0xa4	-92
19	0x81	-127
20	0x81	-127
21	0x81	-127
22	0x81	-127
23	0x3a	58
24	0x11	17
25	0xbb	-69
26	0x1e	30
27	0x11	17
28	0x7f	127
29	0xf6	-10
30	0xba	-70
31	0xf2	-14
32	0x4a	74
33	0x31	49
34	0x41	65
35	0xe3	-29
36	0x26	38
37	0x22	34
38	0x1f	31
39	0x06	6
40	0xf5	-11
41	0x42	66
42	0x94	-108
43	0x4d	77
44	0x81	-127
45	0xfe	-2
46	0xf0	-16
47	0x13	19
48	0xfd	-3
49	0xae	-82
50	0x81	-127
51	0xfc	-4
52	0xe5	-27
53	0xe6	-26
54	0xb6	-74
55	0xbb	-69
56	0x7f	127
57	0xbd	-67
58	0x21	33
59	0x0a	10
60	0x21	33
61	0xe6	-26
62	0x9f	-97
63	0xde	-34
64	0x59	89
65	0x32	50
66	0x7f	127
67	0x81	-127
68	0x7f	127
69	0x92	-110
70	0x30	48
71	0xbc	-68
72	0x79	121
73	0x13	19
74	0x81	-127
75	0x7f	127
76	0xaa	-86
77	0x19	25
78	0xe4	-28
79	0xf4	-12
80	0x7f	127
81	0xcc	-52
82	0xb2	-78
83	0xc1	-63
84	0x07	7
85	0x14	20
86	0xde	-34
87	0xbc	-68
88	0x0a	10
89	0x51	81
90	0x52	82
91	0x2d	45
92	0xfc	-4
93	0x81	-127
94	0x81	-127
95	0x19	25
96	0x11	17
97	0xf8	-8
98	0xfd	-3
99	0x05	5
100	0xf7	-9
101	0xdc	-36
102	0xe3	-29
103	0x5c	92
104	0x20	32
105	0x01	1
106	0x9f	-97
107	0xd3	-45
108	0x24	36
109	0x04	4
110	0x81	-127
111	0x07	7
112	0x0d	13
113	0xcf	-49
114	0x03	3
115	0x1a	26
116	0xa4	-92
117	0xca	-54
118	0x81	-127
119	0x27	39
120	0x01	1
121	0x03	3
122	0x24	36
123	0xdc	-36
124	0xe3	-29
125	0x10	16
126	0xda	-38
127	0x01	1
128	0x04	4
129	0x25	37
130	0x04	4
131	0x29	41
132	0xfd	-3
133	0xfb	-5
134	0xfd	-3
135	0x1f	31
136	0x99	-103
137	0x46	70
138	0x84	-124
139	0x3e	62
140	0x14	20
141	0xf7	-9
142	0xff	-1
143	0x11	17
144	0x07	7
145	0x32	50
146	0xf9	-7
147	0xfa	-6
148	0x02	2
149	0x1d	29
150	0xd0	-48
151	0xee	-18
152	0x1d	29
153	0xe8	-24
154	0x2b	43
155	0xda	-38
156	0xfc	-4
157	0xfe	-2
158	0x10	16
159	0x03	3
160	0x0b	11
161	0x0e	14
162	0x08	8
163	0xfd	-3
164	0x5b	91
165	0x9f	-97
166	0x0e	14
167	0x92	-110
168	0x5d	93
169	0xf7	-9
170	0x93	-109
171	0x1c	28
172	0xd0	-48
173	0x00	0
174	0xec	-20
175	0x03	3
176	0x29	41
177	0xe4	-28
178	0xd6	-42
179	0xd2	-46
180	0xdb	-37
181	0x0e	14
182	0x4a	74
183	0xce	-50
184	0xed	-19
185	0x47	71
186	0x66	102
187	0x05	5
188	0xfd	-3
189	0x0f	15
190	0x03	3
191	0xf8	-8
192	0x72	114
193	0x7f	127
194	0xff	-1
195	0x0d	13
196	0xd3	-45
197	0xbe	-66
198	0xb1	-79
199	0x76	118
200	0x3c	60
201	0xeb	-21
202	0xe6	-26
203	0xdc	-36
204	0x56	86
205	0x10	16
206	0xbe	-66
207	0x28	40
208	0xf8	-8
209	0xe3	-29
210	0x33	51
211	0x05	5
212	0xca	-54
213	0xb1	-79
214	0xb2	-78
215	0x01	1
216	0xf0	-16
217	0xe7	-25
218	0x28	40
219	0x7f	127
220	0x29	41
221	0xea	-22
222	0x07	7
223	0x1a	26
224	0x3a	58
225	0x69	105
226	0xf8	-8
227	0x08	8
228	0xfd	-3
229	0xe8	-24
230	0xfc	-4
231	0x40	64
232	0x98	-104
233	0x7f	127
234	0xd6	-42
235	0x60	96
236	0x77	119
237	0x0c	12
238	0x00	0
239	0x7f	127
240	0x08	8
241	0x0f	15
242	0xf1	-15
243	0xe5	-27
244	0xe3	-29
245	0xf0	-16
246	0xf5	-11
247	0x9b	-101
248	0x26	38
249	0xdd	-35
250	0x60	96
251	0x01	1
252	0x03	3
253	0xe1	-31
254	0xfd	-3
255	0x7f	127

model_2/conv2d_8/Conv2D/ReadVariableOp i1 [32, 1, 1, 32]
0	0xe1	-31
1	0x58	88
2	0x25	37
3	0xd6	-42
4	0x18	24
5	0x2e	46
6	0x33	51
7	0x38	56
8	0x33	51
9	0xcb	-53
10	0x2f	47
11	0xba	-70
12	0x14	20
13	0x07	7
14	0x8d	-115
15	0xe7	-25
16	0xd5	-43
17	0xfd	-3
18	0x04	4
19	0x81	-127
20	0x7b	123
21	0x52	82
22	0x21	33
23	0x3e	62
24	0xd1	-47
25	0x42	66
26	0x19	25
27	0x6d	109
28	0x59	89
29	0x0e	14
30	0x43	67
31	0xfe	-2
32	0xf3	-13
33	0x07	7
34	0x1b	27
35	0x23	35
36	0x02	2
37	0xb2	-78
38	0x7f	127
39	0xfe	-2
40	0xf6	-10
41	0xd8	-40
42	0x3f	63
43	0x27	39
44	0xe5	-27
45	0x0f	15
46	0xa5	-91
47	0x21	33
48	0xb6	-74
49	0x1b	27
50	0xa0	-96
51	0xda	-38
52	0xf8	-8
53	0xc9	-55
54	0x37	55
55	0x15	21
56	0x06	6
57	0x19	25
58	0x03	3
59	0xb3	-77
60	0xbd	-67
61	0xcc	-52
62	0xa9	-87
63	0x46	70
64	0x2f	47
65	0x1d	29
66	0x34	52
67	0xf9	-7
68	0x11	17
69	0x17	23
70	0x08	8
71	0xf6	-10
72	0x21	33
73	0x11	17
74	0xdd	-35
75	0x1c	28
76	0xe6	-26
77	0x2e	46
78	0xc4	-60
79	0x06	6
80	0x3a	58
81	0x06	6
82	0xf3	-13
83	0x3a	58
84	0xdc	-36
85	0x2a	42
86	0x16	22
87	0x16	22
88	0xf3	-13
89	0x1d	29
90	0xff	-1
91	0x29	41
92	0x7f	127
93	0x0e	14
94	0xf6	-10
95	0x07	7
96	0xd7	-41
97	0xa0	-96
98	0xd5	-43
99	0x3d	61
100	0xb0	-80
101	0x08	8
102	0x51	81
103	0x35	53
104	0x23	35
105	0xd2	-46
106	0xff	-1
107	0x46	70
108	0xf2	-14
109	0xd9	-39
110	0x26	38
111	0x7f	127
112	0x1b	27
113	0xf7	-9
114	0xb8	-72
115	0xf6	-10
116	0x45	69
117	0x43	67
118	0xdf	-33
119	0xb4	-76
120	0x00	0
121	0x45	69
122	0x0c	12
123	0xd0	-48
124	0xa8	-88
125	0xe6	-26
126	0x02	2
127	0x06	6
128	0xd6	-42
129	0xf9	-7
130	0x06	6
131	0xb8	-72
132	0xcf	-49
133	0x61	97
134	0xc3	-61
135	0xb8	-72
136	0x04	4
137	0xce	-50
138	0x01	1
139	0x40	64
140	0x34	52
141	0xee	-18
142	0xb5	-75
143	0x54	84
144	0x05	5
145	0x1f	31
146	0x71	113
147	0xd8	-40
148	0x7f	127
149	0x5b	91
150	0xc4	-60
151	0xce	-50
152	0xe1	-31
153	0x22	34
154	0x0d	13
155	0xca	-54
156	0x61	97
157	0xb4	-76
158	0x0d	13
159	0x25	37
160	0x30	48
161	0x03	3
162	0x04	4
163	0xfc	-4
164	0x3b	59
165	0x23	35
166	0xce	-50
167	0xf4	-12
168	0xfb	-5
169	0x3a	58
170	0xfd	-3
171	0x7f	127
172	0xea	-22
173	0x95	-107
174	0xd6	-42
175	0x09	9
176	0xfc	-4
177	0xbe	-66
178	0x09	9
179	0x0d	13
180	0xf2	-14
181	0x01	1
182	0xf4	-12
183	0x0b	11
184	0xe0	-32
185	0x19	25
186	0x17	23
187	0xb4	-76
188	0x21	33
189	0xd3	-45
190	0x0a	10
191	0x32	50
192	0x6f	111
193	0xe5	-27
194	0x16	22
195	0xd0	-48
196	0x4c	76
197	0x60	96
198	0x00	0
199	0x1e	30
200	0x1d	29
201	0xcf	-49
202	0x33	51
203	0xbb	-69
204	0xfc	-4
205	0x8a	-118
206	0xac	-84
207	0x2c	44
208	0xd5	-43
209	0x22	34
210	0x18	24
211	0x50	80
212	0x7f	127
213	0xff	-1
214	0x00	0
215	0x92	-110
216	0x05	5
217	0x32	50
218	0xe3	-29
219	0x96	-106
220	0xed	-19
221	0x16	22
222	0x03	3
223	0x4e	78
224	0xdd	-35
225	0x2b	43
226	0x01	1
227	0x52	82
228	0x7e	126
229	0x5f	95
230	0x53	83
231	0x1f	31
232	0x72	114
233	0x6b	107
234	0x81	-127
235	0x56	86
236	0xe6	-26
237	0x0b	11
238	0xd7	-41
239	0x17	23
240	0x71	113
241	0xb8	-72
242	0x13	19
243	0x2a	42
244	0xe5	-27
245	0x4c	76
246	0xe5	-27
247	0x96	-106
248	0xd9	-39
249	0x9d	-99
250	0xfb	-5
251	0xf2	-14
252	0x1f	31
253	0x21	33
254	0xe4	-28
255	0xfb	-5

model_2/depthwise_conv2d_8/depthwise/ReadVariableOp i1 [1, 3, 3, 32]
0	0xd0	-48
1	0xd0	-48
2	0x81	-127
3	0xf8	-8
4	0xb8	-72
5	0xd0	-48
6	0x3f	63
7	0x7d	125
8	0x09	9
9	0x7f	127
10	0x0d	13
11	0x7f	127
12	0x1a	26
13	0x81	-127
14	0x8f	-113
15	0xee	-18
16	0x7f	127
17	0xcf	-49
18	0xb2	-78
19	0x42	66
20	0xb4	-76
21	0x9a	-102
22	0x7f	127
23	0xc9	-55
24	0xe4	-28
25	0xf9	-7
26	0x1e	30
27	0xd9	-39
28	0x10	16
29	0x33	51
30	0x96	-106
31	0xbe	-66
32	0x1d	29
33	0xe7	-25
34	0xcf	-49
35	0xc7	-57
36	0x81	-127
37	0x9f	-97
38	0xf9	-7
39	0x4c	76
40	0xd0	-48
41	0x4c	76
42	0xc9	-55
43	0x08	8
44	0xf8	-8
45	0xea	-22
46	0x81	-127
47	0x01	1
48	0x1c	28
49	0xcd	-51
50	0xd8	-40
51	0x03	3
52	0xd4	-44
53	0x44	68
54	0x3c	60
55	0xe5	-27
56	0x7c	124
57	0x39	57
58	0x38	56
59	0xa2	-94
60	0x38	56
61	0x7f	127
62	0x05	5
63	0xdd	-35
64	0xec	-20
65	0x01	1
66	0xea	-22
67	0x9a	-102
68	0x89	-119
69	0x81	-127
70	0x1d	29
71	0xfb	-5
72	0xf3	-13
73	0x6d	109
74	0x81	-127
75	0xdd	-35
76	0x03	3
77	0x17	23
78	0xd1	-47
79	0xfc	-4
80	0x0a	10
81	0xe9	-23
82	0x1c	28
83	0xca	-54
84	0xd5	-43
85	0x85	-123
86	0xf2	-14
87	0x20	32
88	0x77	119
89	0x6f	111
90	0x7f	127
91	0x8d	-115
92	0xf4	-12
93	0x66	102
94	0x3f	63
95	0xf8	-8
96	0xb8	-72
97	0xc3	-61
98	0xb6	-74
99	0x87	-121
100	0x13	19
101	0x2b	43
102	0x7f	127
103	0x1f	31
104	0xf4	-12
105	0x0f	15
106	0x7d	125
107	0x02	2
108	0xf5	-11
109	0xf2	-14
110	0x12	18
111	0x34	52
112	0x65	101
113	0xd8	-40
114	0x81	-127
115	0x7f	127
116	0xbf	-65
117	0xc2	-62
118	0x43	67
119	0x7f	127
120	0xd1	-47
121	0xdd	-35
122	0xf8	-8
123	0x66	102
124	0xfe	-2
125	0x32	50
126	0xcb	-53
127	0x1a	26
128	0xe7	-25
129	0x81	-127
130	0xde	-34
131	0x22	34
132	0xe3	-29
133	0xb5	-75
134	0xfd	-3
135	0x0d	13
136	0x01	1
137	0xdd	-35
138	0x1a	26
139	0xa5	-91
140	0xce	-50
141	0xcc	-52
142	0x89	-119
143	0x47	71
144	0xdd	-35
145	0x17	23
146	0xd7	-41
147	0x2e	46
148	0xcb	-53
149	0x1d	29
150	0x3e	62
151	0xfd	-3
152	0x7f	127
153	0x17	23
154	0x19	25
155	0x1d	29
156	0x7f	127
157	0x6b	107
158	0xff	-1
159	0xce	-50
160	0xba	-70
161	0x23	35
162	0x19	25
163	0xa1	-95
164	0x13	19
165	0x20	32
166	0x29	41
167	0xf0	-16
168	0x19	25
169	0x0e	14
170	0x10	16
171	0x28	40
172	0xf0	-16
173	0xcc	-52
174	0x8e	-114
175	0x7f	127
176	0xa5	-91
177	0x4c	76
178	0x2d	45
179	0x19	25
180	0xda	-38
181	0x94	-108
182	0x0c	12
183	0xdf	-33
184	0x2c	44
185	0x7f	127
186	0x53	83
187	0xd6	-42
188	0x05	5
189	0x25	37
190	0x7f	127
191	0xcc	-52
192	0x48	72
193	0x00	0
194	0xc6	-58
195	0xb4	-76
196	0x23	35
197	0x1e	30
198	0x3c	60
199	0xce	-50
200	0x34	52
201	0x0f	15
202	0xc0	-64
203	0xc3	-61
204	0x7f	127
205	0x34	52
206	0x00	0
207	0xdf	-33
208	0xf5	-11
209	0x04	4
210	0xf2	-14
211	0x17	23
212	0x81	-127
213	0x13	19
214	0xd2	-46
215	0x7f	127
216	0xec	-20
217	0x14	20
218	0x08	8
219	0x7f	127
220	0x02	2
221	0x23	35
222	0x30	48
223	0x7f	127
224	0x7f	127
225	0xe3	-29
226	0xd9	-39
227	0xab	-85
228	0xf8	-8
229	0x74	116
230	0x10	16
231	0xf6	-10
232	0x63	99
233	0x02	2
234	0x5f	95
235	0xc5	-59
236	0xd5	-43
237	0xfa	-6
238	0xcf	-49
239	0x14	20
240	0xc6	-58
241	0x39	57
242	0x29	41
243	0xcb	-53
244	0xd8	-40
245	0x7f	127
246	0xcc	-52
247	0x79	121
248	0x67	103
249	0xf6	-10
250	0x10	16
251	0xf0	-16
252	0x26	38
253	0x17	23
254	0x38	56
255	0x11	17

model_2/depthwise_conv2d_14/depthwise/ReadVariableOp i1 [1, 3, 3, 32]
0	0xb5	-75
1	0x81	-127
2	0xa3	-93
3	0xce	-50
4	0x92	-110
5	0x81	-127
6	0xf8	-8
7	0x04	4
8	0x81	-127
9	0xc6	-58
10	0xef	-17
11	0x06	6
12	0x98	-104
13	0xff	-1
14	0x04	4
15	0xf9	-7
16	0x81	-127
17	0x00	0
18	0x8e	-114
19	0x99	-103
20	0xfd	-3
21	0xf7	-9
22	0x81	-127
23	0x81	-127
24	0xfe	-2
25	0xa3	-93
26	0x01	1
27	0xff	-1
28	0x25	37
29	0xfb	-5
30	0xef	-17
31	0x81	-127
32	0x81	-127
33	0xcc	-52
34	0xaf	-81
35	0xaa	-86
36	0x81	-127
37	0xfc	-4
38	0xf9	-7
39	0x9a	-102
40	0xc5	-59
41	0xa9	-87
42	0x81	-127
43	0xdf	-33
44	0x98	-104
45	0x81	-127
46	0x02	2
47	0x20	32
48	0x84	-124
49	0x31	49
50	0x81	-127
51	0x83	-125
52	0x3e	62
53	0x10	16
54	0xf1	-15
55	0xfa	-6
56	0xfd	-3
57	0x9f	-97
58	0x02	2
59	0xff	-1
60	0x09	9
61	0xf9	-7
62	0xfb	-5
63	0x8f	-113
64	0xeb	-21
65	0xbf	-65
66	0x81	-127
67	0xaf	-81
68	0x89	-119
69	0x00	0
70	0xfd	-3
71	0x81	-127
72	0xf4	-12
73	0x0f	15
74	0xff	-1
75	0x39	57
76	0x81	-127
77	0x02	2
78	0x00	0
79	0x28	40
80	0xbe	-66
81	0x7f	127
82	0xaf	-81
83	0x81	-127
84	0x15	21
85	0xca	-54
86	0xfd	-3
87	0xfe	-2
88	0xff	-1
89	0x81	-127
90	0xfd	-3
91	0xfb	-5
92	0x51	81
93	0xf6	-10
94	0x08	8
95	0xac	-84
96	0xf5	-11
97	0xbb	-69
98	0xde	-34
99	0x1e	30
100	0xf7	-9
101	0xf1	-15
102	0xf6	-10
103	0xff	-1
104	0xf9	-7
105	0xa7	-89
106	0x02	2
107	0xec	-20
108	0xce	-50
109	0xf6	-10
110	0xee	-18
111	0xc0	-64
112	0xc9	-55
113	0xe7	-25
114	0xe7	-25
115	0xc7	-57
116	0xe8	-24
117	0xa0	-96
118	0xfc	-4
119	0x93	-109
120	0xf9	-7
121	0xfe	-2
122	0x00	0
123	0x01	1
124	0x29	41
125	0x02	2
126	0x14	20
127	0xd4	-44
128	0xcd	-51
129	0xd7	-41
130	0xd7	-41
131	0x81	-127
132	0xf4	-12
133	0x00	0
134	0xf8	-8
135	0x07	7
136	0xfd	-3
137	0x91	-111
138	0x08	8
139	0x0e	14
140	0xdb	-37
141	0xfe	-2
142	0xd1	-47
143	0x16	22
144	0xe3	-29
145	0x0b	11
146	0xea	-22
147	0xcc	-52
148	0xff	-1
149	0xcc	-52
150	0xf6	-10
151	0xcb	-53
152	0x01	1
153	0x04	4
154	0x94	-108
155	0xfb	-5
156	0xdb	-37
157	0xf7	-9
158	0x50	80
159	0xef	-17
160	0xfc	-4
161	0x12	18
162	0xcc	-52
163	0x2d	45
164	0x00	0
165	0xff	-1
166	0xf7	-9
167	0xe5	-27
168	0x01	1
169	0x18	24
170	0x09	9
171	0x41	65
172	0xf3	-13
173	0x01	1
174	0x04	4
175	0xfc	-4
176	0x00	0
177	0x35	53
178	0x2d	45
179	0xeb	-21
180	0x03	3
181	0xb6	-74
182	0xff	-1
183	0xf8	-8
184	0x86	-122
185	0xed	-19
186	0xfe	-2
187	0x81	-127
188	0x77	119
189	0xfe	-2
190	0x46	70
191	0x0f	15
192	0x01	1
193	0xf8	-8
194	0xff	-1
195	0x07	7
196	0xfb	-5
197	0xf9	-7
198	0x81	-127
199	0xfd	-3
200	0x00	0
201	0x0d	13
202	0xf4	-12
203	0x1d	29
204	0xe6	-26
205	0xff	-1
206	0x81	-127
207	0x81	-127
208	0xe3	-29
209	0xe4	-28
210	0x00	0
211	0xde	-34
212	0x24	36
213	0x81	-127
214	0xfc	-4
215	0xfe	-2
216	0xf6	-10
217	0x03	3
218	0x01	1
219	0x02	2
220	0x77	119
221	0xff	-1
222	0x28	40
223	0xf0	-16
224	0xf6	-10
225	0x38	56
226	0xe3	-29
227	0xb8	-72
228	0xfa	-6
229	0x00	0
230	0x94	-108
231	0xd8	-40
232	0x01	1
233	0x34	52
234	0xff	-1
235	0x56	86
236	0xee	-18
237	0xfd	-3
238	0x9a	-102
239	0x83	-125
240	0x25	37
241	0x04	4
242	0x3e	62
243	0x00	0
244	0x7f	127
245	0xb2	-78
246	0xfa	-6
247	0xf4	-12
248	0xf3	-13
249	0xee	-18
250	0x81	-127
251	0xff	-1
252	0x1b	27
253	0xfe	-2
254	0x7f	127
255	0xf9	-7

model_2/depthwise_conv2d_15/depthwise/ReadVariableOp i1 [1, 3, 3, 32]
0	0x26	38
1	0xb3	-77
2	0x81	-127
3	0x58	88
4	0x7f	127
5	0xdd	-35
6	0xc1	-63
7	0x92	-110
8	0x0d	13
9	0xda	-38
10	0x66	102
11	0x81	-127
12	0x0a	10
13	0x2a	42
14	0x7f	127
15	0x7f	127
16	0x57	87
17	0x43	67
18	0xde	-34
19	0xa2	-94
20	0x00	0
21	0xe7	-25
22	0x81	-127
23	0xd6	-42
24	0x81	-127
25	0x81	-127
26	0xd4	-44
27	0xb0	-80
28	0x81	-127
29	0xa4	-92
30	0xd9	-39
31	0xf9	-7
32	0x7f	127
33	0x81	-127
34	0xf5	-11
35	0x55	85
36	0xaa	-86
37	0xac	-84
38	0xe0	-32
39	0x81	-127
40	0xed	-19
41	0xcb	-53
42	0x1b	27
43	0x16	22
44	0xd3	-45
45	0x7f	127
46	0xc5	-59
47	0x52	82
48	0x13	19
49	0x3f	63
50	0x81	-127
51	0xe8	-24
52	0x56	86
53	0xea	-22
54	0x09	9
55	0xcc	-52
56	0x92	-110
57	0xf9	-7
58	0xa8	-88
59	0x9e	-98
60	0xf1	-15
61	0x1e	30
62	0xb2	-78
63	0xf7	-9
64	0x47	71
65	0xf7	-9
66	0x13	19
67	0x15	21
68	0x9a	-102
69	0x81	-127
70	0xa6	-90
71	0xd6	-42
72	0xdb	-37
73	0x81	-127
74	0x7f	127
75	0x18	24
76	0x81	-127
77	0x60	96
78	0xcc	-52
79	0x52	82
80	0x81	-127
81	0x81	-127
82	0xc7	-57
83	0xfc	-4
84	0x6a	106
85	0xb4	-76
86	0xeb	-21
87	0xe9	-23
88	0x98	-104
89	0xc6	-58
90	0xd4	-44
91	0xb9	-71
92	0x9f	-97
93	0x0b	11
94	0xd3	-45
95	0x7f	127
96	0x0f	15
97	0xd7	-41
98	0xa3	-93
99	0x61	97
100	0x68	104
101	0xf2	-14
102	0xb3	-77
103	0xff	-1
104	0xd9	-39
105	0xec	-20
106	0x2e	46
107	0xb9	-71
108	0x49	73
109	0x28	40
110	0x6d	109
111	0x26	38
112	0x2f	47
113	0x0c	12
114	0xdb	-37
115	0x81	-127
116	0x1a	26
117	0x97	-105
118	0xdb	-37
119	0xea	-22
120	0xf9	-7
121	0x0f	15
122	0xc2	-62
123	0x9c	-100
124	0xdc	-36
125	0x23	35
126	0x14	20
127	0xf8	-8
128	0x47	71
129	0xd5	-43
130	0xda	-38
131	0x4b	75
132	0xfd	-3
133	0xe3	-29
134	0xfb	-5
135	0xe9	-23
136	0xbe	-66
137	0xed	-19
138	0xfe	-2
139	0x0f	15
140	0x05	5
141	0x53	83
142	0x9b	-101
143	0xf5	-11
144	0x0b	11
145	0x22	34
146	0xb3	-77
147	0xd9	-39
148	0x7f	127
149	0xce	-50
150	0xfe	-2
151	0xd4	-44
152	0x16	22
153	0x0f	15
154	0x81	-127
155	0x81	-127
156	0x0a	10
157	0x7f	127
158	0x18	24
159	0x04	4
160	0x0a	10
161	0x19	25
162	0x03	3
163	0x3c	60
164	0xd4	-44
165	0xa8	-88
166	0x81	-127
167	0xdb	-37
168	0xa5	-91
169	0xda	-38
170	0x2a	42
171	0xff	-1
172	0xe5	-27
173	0x52	82
174	0xcd	-51
175	0x08	8
176	0xb6	-74
177	0xb6	-74
178	0xd6	-42
179	0xfc	-4
180	0x7b	123
181	0x81	-127
182	0xdb	-37
183	0xa2	-94
184	0x20	32
185	0xac	-84
186	0xc4	-60
187	0xad	-83
188	0xeb	-21
189	0x3b	59
190	0x10	16
191	0x11	17
192	0xd3	-45
193	0xdb	-37
194	0xdf	-33
195	0x77	119
196	0x5b	91
197	0x09	9
198	0xf3	-13
199	0x3f	63
200	0x81	-127
201	0x0e	14
202	0x0a	10
203	0xd7	-41
204	0x21	33
205	0x3e	62
206	0x3f	63
207	0x41	65
208	0x16	22
209	0xf0	-16
210	0xd1	-47
211	0x89	-119
212	0xf3	-13
213	0xa1	-95
214	0xec	-20
215	0xe4	-28
216	0x6a	106
217	0xca	-54
218	0xa7	-89
219	0xf8	-8
220	0x04	4
221	0x30	48
222	0x7f	127
223	0xf5	-11
224	0xe9	-23
225	0xfc	-4
226	0xef	-17
227	0x3b	59
228	0x52	82
229	0x23	35
230	0xf3	-13
231	0x1a	26
232	0xaf	-81
233	0x07	7
234	0x01	1
235	0xfc	-4
236	0x2c	44
237	0x49	73
238	0x9b	-101
239	0x18	24
240	0x18	24
241	0xf9	-7
242	0xf0	-16
243	0xd4	-44
244	0xef	-17
245	0xcd	-51
246	0x09	9
247	0xa7	-89
248	0x52	82
249	0xe7	-25
250	0x95	-107
251	0xae	-82
252	0x0d	13
253	0x4d	77
254	0x5d	93
255	0x16	22
