examples/gender_detection/96_sex_cnn_quant.tflite (tflite, 66360 bytes, 8 tensors)

sequential/conv2d/Conv2D i1 [12, 5, 5, 3]
000000 1d f7 f5 46 f7 e4 24 01 da 2c c4 c7 19 cc ce 49
       29 -9 -11 70 -9 -28 36 1 -38 44 -60 -57 25 -52 -50 73
000010 10 fb 58 06 05 4b 02 f9 3e f9 cd 1f d4 b5 61 0c
       16 -5 88 6 5 75 2 -7 62 -7 -51 31 -44 -75 97 12
000020 ec 63 fc f5 45 e9 ea 26 ca c4 34 cc bb 2a d9 ef
       -20 99 -4 -11 69 -23 -22 38 -54 -60 52 -52 -69 42 -39 -17
000030 2d c3 d5 08 d2 bf 0d 96 81 df 9b a1 fe d1 c8 14
       45 -61 -43 8 -46 -65 13 -106 -127 -33 -101 -95 -2 -47 -56 20
000040 bd ce f2 a3 aa e2 a8 93 bb 87 99 4c 67 61 73 67
       -67 -50 -14 -93 -86 -30 -88 -109 -69 -121 -103 76 103 97 115 103
000050 55 7f 6e 56 7b 61 49 6c 5f 3c 0f 24 33 35 2a 29
       85 127 110 86 123 97 73 108 95 60 15 36 51 53 42 41
000060 43 33 2b 42 32 26 2b 2b 21 e0 00 12 f3 f9 00 fd
       67 51 43 66 50 38 43 43 33 -32 0 18 -13 -7 0 -3
000070 03 02 f9 00 ff f8 fe f6 ba d3 df bf c9 d4 cd c8
       3 2 -7 0 -1 -8 -2 -10 -70 -45 -33 -65 -55 -44 -51 -56
000080 d0 c3 c4 cb cd d7 d6 af b5 c6 a1 a8 a9 aa 9e a5
       -48 -61 -60 -53 -51 -41 -42 -81 -75 -58 -95 -88 -87 -86 -98 -91
000090 a2 ae a8 ab b8 b2 c5 bf b3 c8 d2 d7 0b e1 ca 0e
       -94 -82 -88 -85 -72 -78 -59 -65 -77 -56 -46 -41 11 -31 -54 14
0000a0 98 c1 af 99 93 d8 b4 e3 0e b9 08 12 06 14 f0 cf
       -104 -63 -81 -103 -109 -40 -76 -29 14 -71 8 18 6 20 -16 -49
0000b0 dd ff ba f2 e4 a1 e5 e2 03 e6 e5 08 eb 15 dc dc
       -35 -1 -70 -14 -28 -95 -27 -30 3 -26 -27 8 -21 21 -36 -36
0000c0 d4 e0 f1 de e0 40 e5 0c 56 15 27 42 f0 ff 13 02
       -44 -32 -15 -34 -32 64 -27 12 86 21 39 66 -16 -1 19 2
0000d0 ae f9 d5 81 30 09 f7 53 06 f3 40 d7 f8 1b e3 d9
       -82 -7 -43 -127 48 9 -9 83 6 -13 64 -41 -8 27 -29 -39
0000e0 15 fe 01 15 d8 dc 09 d7 e7 15 df e7 15 ea f4 1d
       21 -2 1 21 -40 -36 9 -41 -25 21 -33 -25 21 -22 -12 29
0000f0 a9 fe 0e 84 e6 0b 81 ee 18 98 fb 19 a9 08 26 b8
       -87 -2 14 -124 -26 11 -127 -18 24 -104 -5 25 -87 8 38 -72

sequential/conv2d_1/Conv2D i1 [16, 5, 5, 12]
000000 03 0e fa 09 ff f7 15 03 07 17 21 03 05 09 fd 09
       3 14 -6 9 -1 -9 21 3 7 23 33 3 5 9 -3 9
000010 00 f0 24 fc 10 08 1f 0a 01 00 ff 15 fe f1 13 ff
       0 -16 36 -4 16 8 31 10 1 0 -1 21 -2 -15 19 -1
000020 10 00 1b f4 03 0e fd 00 00 f7 f3 fe fa 02 0c ea
       16 0 27 -12 3 14 -3 0 0 -9 -13 -2 -6 2 12 -22
000030 01 16 00 fc fe 20 ef 00 f3 0c 09 ef 01 01 fc f3
       1 22 0 -4 -2 32 -17 0 -13 12 9 -17 1 1 -4 -13
000040 ff f7 1d 04 f9 e5 fb 05 ff e4 fe 00 05 fe 20 04
       -1 -9 29 4 -7 -27 -5 5 -1 -28 -2 0 5 -2 32 4
000050 15 db 01 de 00 e1 fd 02 03 fd fe 03 11 d2 f6 da
       21 -37 1 -34 0 -31 -3 2 3 -3 -2 3 17 -46 -10 -38
000060 01 e7 ff 07 02 f9 e6 06 fe ef e8 cb 05 f1 00 00
       1 -25 -1 7 2 -7 -26 6 -2 -17 -24 -53 5 -15 0 0
000070 00 fe e9 03 db 01 fb e7 02 f3 fb f9 00 01 09 04
       0 -2 -23 3 -37 1 -5 -25 2 -13 -5 -7 0 1 9 4
000080 f8 01 33 07 ff d4 00 f7 fe e6 05 fd 0d ed f3 dc
       -8 1 51 7 -1 -44 0 -9 -2 -26 5 -3 13 -19 -13 -36
000090 fe e0 01 05 03 e9 f2 fe 00 e2 f4 ed 01 de 00 fd
       -2 -32 1 5 3 -23 -14 -2 0 -30 -12 -19 1 -34 0 -3
0000a0 00 f8 e2 01 fa ef df d7 00 e6 04 fa 04 04 ec 04
       0 -8 -30 1 -6 -17 -33 -41 0 -26 4 -6 4 4 -20 4
0000b0 e5 01 fa 03 fb b2 00 11 03 f3 09 ff 01 e4 0a fa
       -27 1 -6 3 -5 -78 0 17 3 -13 9 -1 1 -28 10 -6
0000c0 fd 98 00 ff 01 e3 14 ff 04 d7 d4 fb fd a7 01 07
       -3 -104 0 -1 1 -29 20 -1 4 -41 -44 -5 -3 -89 1 7
0000d0 03 ee 05 ff f6 e0 eb 05 fc d7 ff 03 05 00 fd fd
       3 -18 5 -1 -10 -32 -21 5 -4 -41 -1 3 5 0 -3 -3
0000e0 dd fb df 08 02 d9 05 fd 04 11 0f 03 d6 03 fd 11
       -35 -5 -33 8 2 -39 5 -3 4 17 15 3 -42 3 -3 17
0000f0 fb aa ff 1e fd 0c 20 fa 1e f0 c0 ec fc 81 00 18
       -5 -86 -1 30 -3 12 32 -6 30 -16 -64 -20 -4 -127 0 24

sequential/conv2d_2/Conv2D i1 [16, 5, 5, 16]
000000 b0 30 ee 07 cd e5 f0 d8 b7 2b 12 f9 16 b3 04 e1
       -80 48 -18 7 -51 -27 -16 -40 -73 43 18 -7 22 -77 4 -31
000010 06 0c ef fb d1 d1 0d ff f8 1c 1d 20 f3 eb 0b dd
       6 12 -17 -5 -47 -47 13 -1 -8 28 29 32 -13 -21 11 -35
000020 2e f6 fa 0c d8 f7 16 1f 24 fe da 0b c9 0b fc f4
       46 -10 -6 12 -40 -9 22 31 36 -2 -38 11 -55 11 -4 -12
000030 1f ba e0 cd e7 d2 fe 03 f2 02 d6 f7 fa 13 cb c2
       31 -70 -32 -51 -25 -46 -2 3 -14 2 -42 -9 -6 19 -53 -62
000040 43 af d7 a9 d3 b1 b9 1a 00 21 e3 b8 ed 16 ca ce
       67 -81 -41 -87 -45 -79 -71 26 0 33 -29 -72 -19 22 -54 -50
000050 da 0d 00 2d d0 32 e6 eb fb e2 1f cc be b1 12 4d
       -38 13 0 45 -48 50 -26 -21 -5 -30 31 -52 -66 -79 18 77
000060 f8 0f 06 05 f0 e9 e7 30 f9 14 44 fa 06 d0 bd d7
       -8 15 6 5 -16 -23 -25 48 -7 20 68 -6 6 -48 -67 -41
000070 5c da 0e fd 08 b2 1a 1f ef 2d 44 f6 1f f3 d2 02
       92 -38 14 -3 8 -78 26 31 -17 45 68 -10 31 -13 -46 2
000080 38 e2 1d c4 20 e5 3b 16 1b 48 2a 1b e0 0b c6 19
       56 -30 29 -60 32 -27 59 22 27 72 42 27 -32 11 -58 25
000090 7f bb 1b ef 03 c8 07 fc 27 46 fc 0a eb 1a a7 0c
       127 -69 27 -17 3 -56 7 -4 39 70 -4 10 -21 26 -89 12
0000a0 dd 25 00 17 fc 3d b9 2c d4 b0 df c8 ee 08 0d 2c
       -35 37 0 23 -4 61 -71 44 -44 -80 -33 -56 -18 8 13 44
0000b0 a7 24 17 2b 02 19 d0 0b fd e3 cf f5 de d9 16 10
       -89 36 23 43 2 25 -48 11 -3 -29 -49 -11 -34 -39 22 16
0000c0 c3 0b 2e 1c e9 f3 02 dd 0a 0a 11 0c eb d3 0e f7
       -61 11 46 28 -23 -13 2 -35 10 10 17 12 -21 -45 14 -9
0000d0 e5 e1 15 14 00 d0 ac c3 15 15 17 fa d2 dc c7 ff
       -27 -31 21 20 0 -48 -84 -61 21 21 23 -6 -46 -36 -57 -1
0000e0 20 2d 25 1c ee 0d cf b5 2e 1c d9 0b 08 20 19 29
       32 45 37 28 -18 13 -49 -75 46 28 -39 11 8 32 25 41
0000f0 22 e9 b5 a7 11 0a e1 10 fb c2 ca 1a 00 0c e5 10
       34 -23 -75 -89 17 10 -31 16 -5 -62 -54 26 0 12 -27 16

sequential/conv2d_3/Conv2D i1 [16, 5, 5, 16]
000000 d7 12 d2 08 ef e6 20 ed 09 01 06 2c 0f 2d 26 03
       -41 18 -46 8 -17 -26 32 -19 9 1 6 44 15 45 38 3
000010 d4 26 fa fa ef f6 44 18 e3 ff 2c f3 0d 0b 09 ec
       -44 38 -6 -6 -17 -10 68 24 -29 -1 44 -13 13 11 9 -20
000020 f1 e6 f6 ef 91 0a 16 2f 14 f3 18 f7 11 0d e3 f5
       -15 -26 -10 -17 -111 10 22 47 20 -13 24 -9 17 13 -29 -11
000030 1f b1 c4 2a c9 f9 25 34 10 07 56 ed 1c f6 ee d5
       31 -79 -60 42 -55 -7 37 52 16 7 86 -19 28 -10 -18 -43
000040 14 0d ee 34 e2 07 10 d8 17 d5 33 eb 15 fa e6 bb
       20 13 -18 52 -30 7 16 -40 23 -43 51 -21 21 -6 -26 -69
000050 e7 05 ed cc f9 cc 53 e9 bf ed 24 21 b3 2a 31 01
       -25 5 -19 -52 -7 -52 83 -23 -65 -19 36 33 -77 42 49 1
000060 d7 f5 ff d0 00 fb 44 3d a6 e3 1e 2f d9 23 21 00
       -41 -11 -1 -48 0 -5 68 61 -90 -29 30 47 -39 35 33 0
000070 f4 fa 00 d9 f2 16 03 3d c6 f8 3b df c6 12 1f f5
       -12 -6 0 -39 -14 22 3 61 -58 -8 59 -33 -58 18 31 -11
000080 cb c2 e3 01 18 1c 1f 05 e5 f2 46 d8 cc e0 0b f9
       -53 -62 -29 1 24 28 31 5 -27 -14 70 -40 -52 -32 11 -7
000090 03 d8 d1 0d 05 1d 27 03 c7 08 26 11 e6 fe e7 e9
       3 -40 -47 13 5 29 39 3 -57 8 38 17 -26 -2 -25 -23
0000a0 e5 ec ca f4 0a f7 0c f7 b4 13 22 35 b5 06 11 ee
       -27 -20 -54 -12 10 -9 12 -9 -76 19 34 53 -75 6 17 -18
0000b0 e5 d8 f6 cc 22 ff 23 3c 81 07 e3 22 aa ee 06 cf
       -27 -40 -10 -52 34 -1 35 60 -127 7 -29 34 -86 -18 6 -49
0000c0 c4 c8 0e b7 2a 10 07 24 ba df 01 0a d2 10 10 c7
       -60 -56 14 -73 42 16 7 36 -70 -33 1 10 -46 16 16 -57
0000d0 da bd ee ee e8 e3 ff ee 11 00 2a 0b b0 d1 13 05
       -38 -67 -18 -18 -24 -29 -1 -18 17 0 42 11 -80 -47 19 5
0000e0 e1 c7 c2 0f bc 18 d5 00 e5 0f 23 0c aa c9 f3 b5
       -31 -57 -62 15 -68 24 -43 0 -27 15 35 12 -86 -55 -13 -75
0000f0 08 da 20 f9 33 e2 06 03 1f f1 f7 16 c6 f2 13 b4
       8 -38 32 -7 51 -30 6 3 31 -15 -9 22 -58 -14 19 -76

sequential/conv2d_4/Conv2D i1 [24, 5, 5, 16]
000000 16 e1 f8 f0 f7 fc 2b 06 03 13 11 31 0f 0e 03 ca
       22 -31 -8 -16 -9 -4 43 6 3 19 17 49 15 14 3 -54
000010 de ae 1f 1e d2 e9 08 d9 ec 42 02 e2 02 1b cd cc
       -34 -82 31 30 -46 -23 8 -39 -20 66 2 -30 2 27 -51 -52
000020 3a bd 11 16 e6 cb 43 a2 07 05 ee 2e fa c6 f3 b9
       58 -67 17 22 -26 -53 67 -94 7 5 -18 46 -6 -58 -13 -71
000030 26 dd 32 f8 16 8a 39 f1 0c 0c 25 32 f2 cf f1 d6
       38 -35 50 -8 22 -118 57 -15 12 12 37 50 -14 -49 -15 -42
000040 f4 33 1e fa 15 dd 38 05 1d 17 2b e0 ff dd c0 f6
       -12 51 30 -6 21 -35 56 5 29 23 43 -32 -1 -35 -64 -10
000050 fa f7 ba d1 00 f0 05 fa bf 0f d2 a5 1b db fc fe
       -6 -9 -70 -47 0 -16 5 -6 -65 15 -46 -91 27 -37 -4 -2
000060 f7 bb 05 f6 a5 cc 9d 0d db ca 98 d5 10 c4 d2 c6
       -9 -69 5 -10 -91 -52 -99 13 -37 -54 -104 -43 16 -60 -46 -58
000070 f9 0a d4 e8 01 b2 14 d7 2a ba dd 02 f5 b2 05 a4
       -7 10 -44 -24 1 -78 20 -41 42 -70 -35 2 -11 -78 5 -92
000080 f7 19 ce eb 0e b6 21 29 27 f0 ff 4e fd d1 0c e1
       -9 25 -50 -21 14 -74 33 41 39 -16 -1 78 -3 -47 12 -31
000090 0b fe 0d ac 25 fa 23 11 fa e7 26 fe fd ff f2 0a
       11 -2 13 -84 37 -6 35 17 -6 -25 38 -2 -3 -1 -14 10
0000a0 e7 18 d2 02 23 fa 20 17 f9 17 f1 d7 1c 0a 36 eb
       -25 24 -46 2 35 -6 32 23 -7 23 -15 -41 28 10 54 -21
0000b0 d9 93 df db a4 0e f3 ee 0d f7 c0 af fd ee 1b ce
       -39 -109 -33 -37 -92 14 -13 -18 13 -9 -64 -81 -3 -18 27 -50
0000c0 e8 cc dc ea 28 f9 0e f5 06 f5 d5 1d ff fa 3b e4
       -24 -52 -36 -22 40 -7 14 -11 6 -11 -43 29 -1 -6 59 -28
0000d0 e5 0c 81 12 ee fc fb 1a fd e8 04 23 b3 11 df d7
       -27 12 -127 18 -18 -4 -5 26 -3 -24 4 35 -77 17 -33 -41
0000e0 fb 1c f5 c1 1e 0e c3 30 e9 f3 f3 01 bf 05 e7 26
       -5 28 -11 -63 30 14 -61 48 -23 -13 -13 1 -65 5 -25 38
0000f0 eb e1 e4 e6 f6 f8 0b 23 0f 0b d1 4b 4d 29 1e f4
       -21 -31 -28 -26 -10 -8 11 35 15 11 -47 75 77 41 30 -12

sequential/conv2d_5/Conv2D i1 [32, 5, 5, 24]
000000 12 eb 3a bc 2f 0e 81 13 0c 3c 32 eb 01 2e 01 c6
       18 -21 58 -68 47 14 -127 19 12 60 50 -21 1 46 1 -58
000010 e4 24 b0 a5 f7 2f 00 00 1c 17 ff e5 0c 10 dd 32
       -28 36 -80 -91 -9 47 0 0 28 23 -1 -27 12 16 -35 50
000020 ed 29 02 ec 21 17 e0 c9 ca 0d f7 bb e4 16 35 19
       -19 41 2 -20 33 23 -32 -55 -54 13 -9 -69 -28 22 53 25
000030 e9 19 fe da 02 04 e1 2e 0e 00 f5 e4 ff 03 e6 ef
       -23 25 -2 -38 2 4 -31 46 14 0 -11 -28 -1 3 -26 -17
000040 f7 1e cb eb f6 13 08 f0 05 e0 eb d5 00 f5 d6 f5
       -9 30 -53 -21 -10 19 8 -16 5 -32 -21 -43 0 -11 -42 -11
000050 21 08 32 ec f6 02 2d ef d3 05 e8 e6 14 21 21 2a
       33 8 50 -20 -10 2 45 -17 -45 5 -24 -26 20 33 33 42
000060 15 1f e7 f3 0c 0a e8 0b 18 2a f6 1b 07 15 1c d9
       21 31 -25 -13 12 10 -24 11 24 42 -10 27 7 21 28 -39
000070 1b 16 db 1c 1c 1b 16 24 bf d9 23 06 c7 23 eb bd
       27 22 -37 28 28 27 22 36 -65 -39 35 6 -57 35 -21 -67
000080 e0 e1 0b fb 1f 1e 03 09 ee 1a 10 f7 d4 f7 c2 f6
       -32 -31 11 -5 31 30 3 9 -18 26 16 -9 -44 -9 -62 -10
000090 e9 d1 34 ef e2 f0 03 cc 0d e8 18 bf f1 09 04 0a
       -23 -47 52 -17 -30 -16 3 -52 13 -24 24 -65 -15 9 4 10
0000a0 23 ff 1a fb ff d3 dd f6 01 0a dc 27 e8 2d 10 df
       35 -1 26 -5 -1 -45 -35 -10 1 10 -36 39 -24 45 16 -33
0000b0 13 13 0b f7 17 fd 18 11 1f 11 07 f9 fa 01 fd e0
       19 19 11 -9 23 -3 24 17 31 17 7 -7 -6 1 -3 -32
0000c0 f7 fb e8 38 f2 e4 0e ef e0 05 f5 f7 ec d5 0b 1e
       -9 -5 -24 56 -14 -28 14 -17 -32 5 -11 -9 -20 -43 11 30
0000d0 26 f2 0b 28 22 0a e9 fe e8 22 1f 2d eb 03 0e fa
       38 -14 11 40 34 10 -23 -2 -24 34 31 45 -21 3 14 -6
0000e0 fd 07 f5 19 ef dc db ef 1e 08 fe f3 07 e0 f4 28
       -3 7 -11 25 -17 -36 -37 -17 30 8 -2 -13 7 -32 -12 40
0000f0 d9 eb 05 28 ea f5 e0 df cc e9 fb 1e 0d 2e cc 18
       -39 -21 5 40 -22 -11 -32 -33 -52 -23 -5 30 13 46 -52 24

sequential/batch_normalization_6/batchnorm/mul_1 i1 [8, 1152] scale=0.00042525886 zero_point=0
000000 fe f2 20 17 1e 09 09 f9 f0 31 19 e8 10 1e ec 03
       -0.0008505177 -0.005953624 0.013608283 0.009780954 0.012757766 0.0038273297 0.0038273297 -0.002976812 -0.0068041417 0.020837683 0.010631471 -0.010206212 0.0068041417 0.012757766 -0.008505177 0.0012757765
000010 e9 00 f5 fc 17 ec e8 fe ff 04 26 28 df 1f f8 d3
       -0.009780954 0.0 -0.0046778475 -0.0017010354 0.009780954 -0.008505177 -0.010206212 -0.0008505177 -0.00042525886 0.0017010354 0.016159836 0.017010354 -0.014033542 0.013183025 -0.0034020708 -0.019136649
000020 f2 05 f4 16 03 08 e6 f4 0d 06 00 14 f2 fd eb f7
       -0.005953624 0.0021262942 -0.005103106 0.009355695 0.0012757765 0.0034020708 -0.0110567305 -0.005103106 0.0055283653 0.002551553 0.0 0.008505177 -0.005953624 -0.0012757765 -0.008930436 -0.0038273297
000030 17 fc f9 13 fd 00 d1 e7 f8 0d f0 f1 f0 1d 1e fc
       0.009780954 -0.0017010354 -0.002976812 0.008079918 -0.0012757765 0.0 -0.019987166 -0.010631471 -0.0034020708 0.0055283653 -0.0068041417 -0.006378883 -0.0068041417 0.0123325065 0.012757766 -0.0017010354
000040 e5 0d ff 01 fd 01 e2 f4 04 11 38 00 42 10 ea 00
       -0.011481989 0.0055283653 -0.00042525886 0.00042525886 -0.0012757765 0.00042525886 -0.012757766 -0.005103106 0.0017010354 0.0072294003 0.023814496 0.0 0.028067084 0.0068041417 -0.009355695 0.0
000050 1d f5 f2 17 2c f5 f0 e4 df 24 fc 09 d8 fb 09 03
       0.0123325065 -0.0046778475 -0.005953624 0.009780954 0.01871139 -0.0046778475 -0.0068041417 -0.011907248 -0.014033542 0.015309319 -0.0017010354 0.0038273297 -0.017010354 -0.0021262942 0.0038273297 0.0012757765
000060 f7 30 fc 24 1d 01 f0 ed fb 1e f3 ff 06 1e eb 3f
       -0.0038273297 0.020412425 -0.0017010354 0.015309319 0.0123325065 0.00042525886 -0.0068041417 -0.008079918 -0.0021262942 0.012757766 -0.0055283653 -0.00042525886 0.002551553 0.012757766 -0.008930436 0.026791308
000070 04 0e 3d fd f7 e7 21 0d 07 25 fb 0a ef fb fc e9
       0.0017010354 0.005953624 0.02594079 -0.0012757765 -0.0038273297 -0.010631471 0.014033542 0.0055283653 0.002976812 0.015734578 -0.0021262942 0.0042525884 -0.0072294003 -0.0021262942 -0.0017010354 -0.009780954
000080 f6 01 e9 ec f7 10 0d ef e2 18 11 f5 02 05 f5 f3
       -0.0042525884 0.00042525886 -0.009780954 -0.008505177 -0.0038273297 0.0068041417 0.0055283653 -0.0072294003 -0.012757766 0.010206212 0.0072294003 -0.0046778475 0.0008505177 0.0021262942 -0.0046778475 -0.0055283653
000090 0a 14 f3 08 14 f9 f9 06 04 00 ea 1d e7 21 fb 0c
       0.0042525884 0.008505177 -0.0055283653 0.0034020708 0.008505177 -0.002976812 -0.002976812 0.002551553 0.0017010354 0.0 -0.009355695 0.0123325065 -0.010631471 0.014033542 -0.0021262942 0.005103106
0000a0 f7 0d e9 01 0f ff 32 00 11 09 06 15 f5 f8 09 19
       -0.0038273297 0.0055283653 -0.009780954 0.00042525886 0.006378883 -0.00042525886 0.021262942 0.0 0.0072294003 0.0038273297 0.002551553 0.008930436 -0.0046778475 -0.0034020708 0.0038273297 0.010631471
0000b0 21 f4 ff 01 18 07 08 00 1b 03 fe fb fc 1a 33 12
       0.014033542 -0.005103106 -0.00042525886 0.00042525886 0.010206212 0.002976812 0.0034020708 0.0 0.011481989 0.0012757765 -0.0008505177 -0.0021262942 -0.0017010354 0.0110567305 0.021688202 0.0076546595
0000c0 fc 09 f8 07 e9 21 06 e2 f6 fd f4 0b 02 ee 00 ed
       -0.0017010354 0.0038273297 -0.0034020708 0.002976812 -0.009780954 0.014033542 0.002551553 -0.012757766 -0.0042525884 -0.0012757765 -0.005103106 0.0046778475 0.0008505177 -0.0076546595 0.0 -0.008079918
0000d0 13 ef 0d 2b ec fe f9 03 10 06 1b f9 fc ed 1c 0e
       0.008079918 -0.0072294003 0.0055283653 0.018286131 -0.008505177 -0.0008505177 -0.002976812 0.0012757765 0.0068041417 0.002551553 0.011481989 -0.002976812 -0.0017010354 -0.008079918 0.011907248 0.005953624
0000e0 fd 29 e5 1f f4 26 e8 f5 fe 22 d6 e6 e0 2c 12 0d
       -0.0012757765 0.017435612 -0.011481989 0.013183025 -0.005103106 0.016159836 -0.010206212 -0.0046778475 -0.0008505177 0.014458801 -0.017860873 -0.0110567305 -0.013608283 0.01871139 0.0076546595 0.0055283653
0000f0 03 ef fb 32 08 02 e8 ea 32 e6 2b 41 ea e0 d6 13
       0.0012757765 -0.0072294003 -0.0021262942 0.021262942 0.0034020708 0.0008505177 -0.010206212 -0.009355695 0.021262942 -0.0110567305 0.018286131 0.027641825 -0.009355695 -0.013608283 -0.017860873 0.008079918

sequential/dense_1/MatMul i1 [1, 8] scale=0.006157517 zero_point=0
000000 81 76 76 93 79 89 82 72
       -0.78200465 0.726587 0.726587 -0.67116934 0.74505955 -0.7327445 -0.77584714 0.7019569
